results/2026_01_03_23_24_59/LSTM-AD/68475eda2a5c3cb0de12f7a3dee4bd2b/skab/valve2_0/1/model.pkl (torch, 16423 bytes, 10 tensors)

lstms.weight_ih_l0 f4 [32, 8]
0	0x3e8e1529	0.2775052
1	0x3e99e350	0.30056238
2	0xbd9a8189	-0.07544238
3	0x3eaabb54	0.33346045
4	0xbd90a2bd	-0.0706229
5	0x3da02cac	0.078210205
6	0xbe394725	-0.18093546
7	0x3e5ba478	0.21449459
8	0x3e9f9389	0.31167248
9	0xbe84cd06	-0.2593767
10	0x3e9d5760	0.30730724
11	0x3d87848f	0.066170804
12	0x3e85bd1b	0.2612084
13	0x3d441fda	0.04788194
14	0x3e2e921c	0.17047924
15	0xbd4c7767	-0.04991856
16	0x3ea71476	0.32632798
17	0x3dd9d343	0.10635998
18	0xbdc00097	-0.093751125
19	0x3e0f22af	0.13978074
20	0xbdd06aec	-0.10176644
21	0x3ca090b0	0.019600242
22	0xbda5dc4d	-0.0809866
23	0x3e9777ce	0.2958359
24	0xbe8ee42a	-0.2790845
25	0xbe26e750	-0.16299176
26	0xbdcc760e	-0.09983455
27	0xbe59af13	-0.21258192
28	0x3d08ae6d	0.03336947
29	0xbeb2c9fd	-0.3491973
30	0x3ea37aef	0.31929728
31	0xbe99c52a	-0.30033237
32	0x3e8bc078	0.2729528
33	0x3d710018	0.05883798
34	0xbdeb4b86	-0.11489014
35	0x3e5fb8ee	0.21847889
36	0x3d617e84	0.055052295
37	0x3e923f64	0.28563988
38	0x3d1e508b	0.03865103
39	0xbde48359	-0.11157865
40	0x3dc28c3a	0.09499402
41	0xbdc45ada	-0.09587641
42	0x3e185de0	0.1487956
43	0x3ea19e3a	0.3156603
44	0x3e5147a8	0.20437491
45	0xbe1e45fb	-0.15456383
46	0x3e50fdfc	0.20409387
47	0x3d818e72	0.063259974
48	0x3e37db1d	0.17954679
49	0xbe5caa16	-0.21549258
50	0xbeb3314c	-0.34998548
51	0xbe0be0a1	-0.13659908
52	0xbe8ad891	-0.27118352
53	0x3e94888d	0.2901043
54	0x3dd08e95	0.10183445
55	0x3e15f619	0.1464466
56	0x3de4ff5f	0.11181521
57	0xbbc98957	-0.0061504054
58	0x3e8daacf	0.2766938
59	0xbe809de0	-0.2512045
60	0x3cb65cc8	0.022261038
61	0xbe771b1f	-0.2413144
62	0x3ddf454c	0.10901889
63	0xbdf95c02	-0.12175752
64	0x3dddde7c	0.10833451
65	0xbd96daf8	-0.07365984
66	0x3e9622ce	0.2932343
67	0xbe5694bd	-0.20955177
68	0xbe57eb4c	-0.21085852
69	0xbe57eea3	-0.21087126
70	0x3ea2d108	0.31800103
71	0x3df14cb1	0.11782206
72	0x3eae2f9c	0.34020698
73	0xbe956416	-0.29177922
74	0xbeb38c7b	-0.35068116
75	0xbe8d9f7b	-0.27660736
76	0xbe738a1a	-0.2378315
77	0x3e12a3e4	0.14320332
78	0x3e01a326	0.12659892
79	0x3e9669d3	0.29377612
80	0xbe3af749	-0.18258394
81	0xbe76ce58	-0.24102151
82	0x3e4016fd	0.1875877
83	0xbe125670	-0.14290786
84	0x3e5bbada	0.21457997
85	0xbdabd2f2	-0.08389844
86	0x3e4f1a4d	0.20224877
87	0xbe8ca56f	-0.27469966
88	0xbe36b3e6	-0.17842063
89	0x3ddcc10e	0.1077901
90	0x3d99134e	0.07474385
91	0xbdb89c1f	-0.09014153
92	0x3e57ccd9	0.21074237
93	0x3e761e02	0.24034885
94	0xbe834539	-0.2563875
95	0xbe4147eb	-0.18875091
96	0x3ea5c0a5	0.3237354
97	0xbdf453c5	-0.1193004
98	0xbe005940	-0.12534046
99	0xbeaf2741	-0.34209636
100	0xbe4f542a	-0.2024695
101	0x3db4e08e	0.08831893
102	0xbd3f2583	-0.046666633
103	0xbe83663f	-0.25663945
104	0x3c07e02c	0.008293193
105	0xbe774d4a	-0.24150577
106	0xbe999382	-0.29995352
107	0xbe475c75	-0.19468863
108	0xbe9e6e29	-0.3094342
109	0xbe668618	-0.2251209
110	0x3eb4f2d3	0.3534151
111	0x3d88c294	0.06677738
112	0x3ddf21a7	0.108950906
113	0xbea8d57a	-0.3297537
114	0xbe6dc70b	-0.2322046
115	0xbdf1036b	-0.1176823
116	0x3d627316	0.055285536
117	0xbe9f4864	-0.31109917
118	0xbe1bfe22	-0.15233663
119	0xbe58bdbd	-0.2116613
120	0x3a806c39	0.0009797878
121	0xbe06b73b	-0.13155834
122	0xbcc8b3b4	-0.024499752
123	0xbe755402	-0.23957828
124	0xbe788068	-0.24267733
125	0xbe5336c9	-0.20626368
126	0xbdf7d98d	-0.121020414
127	0xbe8ee007	-0.27905294
128	0x3e97c77d	0.29644385
129	0xbd8fb40c	-0.07016763
130	0x3e9bbf9a	0.30419618
131	0x3de19c0a	0.1101609
132	0xbe994960	-0.29938793
133	0x3e7a8b23	0.24467139
134	0xbdc739e3	-0.09727838
135	0xbe0ac763	-0.13552622
136	0xbe9a6593	-0.3015562
137	0xbeb81983	-0.35956964
138	0x3dbe95b0	0.093058944
139	0xbdaebfdb	-0.08532687
140	0x3e04a93a	0.1295518
141	0xbe98b3ee	-0.29824775
142	0x3e8243d5	0.25442377
143	0xbe890581	-0.26762012
144	0xbd7a0ec6	-0.061049245
145	0x3d973ce1	0.073846586
146	0x3e3ae732	0.18252257
147	0x3e922387	0.2854273
148	0x3ea4e6b7	0.3220727
149	0xbe8f88c4	-0.2803403
150	0x3db63a00	0.08897781
151	0xbe1bb8e4	-0.15207249
152	0xbd1eb21d	-0.03874408
153	0xbe877dbe	-0.2646312
154	0x3ea4e20e	0.32203716
155	0xbe84dbf6	-0.25949067
156	0x3e417df5	0.18895705
157	0x3dfe782e	0.12425266
158	0x3deb4b11	0.11488927
159	0xbe43bc1e	-0.1911473
160	0x3ea489ad	0.32136288
161	0x3d9f1dc5	0.0776935
162	0x3d3a4a6b	0.045481127
163	0xbe9f862f	-0.3115706
164	0x3e17facb	0.14841764
165	0xbd5940c7	-0.053040292
166	0xbe25dbd4	-0.16197139
167	0x3e9b7c66	0.30368346
168	0x3da16ea2	0.0788243
169	0xbe484eb5	-0.19561274
170	0xbe373deb	-0.17894714
171	0xbc8a50ba	-0.016884197
172	0x3e4a25fc	0.19741052
173	0xbdb906b8	-0.090344846
174	0xbe4e91f7	-0.20172869
175	0xbdf7f483	-0.12107184
176	0xbe873c28	-0.26413083
177	0x3e011d60	0.12608862
178	0x3e8c1dc2	0.27366453
179	0xbeaa6b3d	-0.3328494
180	0x3da82adf	0.08211302
181	0x3e3b06b5	0.18264277
182	0x3d834be7	0.064109616
183	0xbe00ee4f	-0.12590908
184	0x3e3cf697	0.18453442
185	0x3e3e418f	0.18579696
186	0x3e076049	0.13220324
187	0xbd7e78c6	-0.062126897
188	0xbdbfbc91	-0.09362138
189	0x3d1aecc7	0.037823465
190	0xbd7fd28d	-0.062456656
191	0xbdd7c69b	-0.10535928
192	0x3e794cde	0.24345729
193	0x3ea46f9f	0.3211641
194	0xbc906abb	-0.017629018
195	0xbd7d36c6	-0.061819814
196	0x3cb836e9	0.02248712
197	0xbb6ef07e	-0.0036459262
198	0x3dcf9d1d	0.10137389
199	0x3dee589d	0.116379954
200	0xbea2bb64	-0.31783593
201	0xbe01db52	-0.1268132
202	0x3e9b9c77	0.3039281
203	0x3e0e5cc1	0.1390257
204	0xbc3aaf35	-0.011394312
205	0xbe53eff2	-0.20697
206	0xbe57de47	-0.21080886
207	0xbe9efb4a	-0.31051093
208	0xbd96af2e	-0.073576316
209	0x3e258672	0.16164568
210	0x3e8b2c03	0.27182016
211	0x3e471f16	0.19445452
212	0xbe866535	-0.2624909
213	0xbe26bcb9	-0.1628293
214	0xbbb732eb	-0.0055907867
215	0x3ec8b93a	0.39203817
216	0x3d82ccf0	0.06386745
217	0xbda1fd4d	-0.079096414
218	0x3e22a371	0.1588266
219	0xbe010d1c	-0.12602657
220	0xbe5d230d	-0.21595402
221	0x3e8af802	0.2714234
222	0xbe1a6bd5	-0.15080197
223	0xbd6c625e	-0.057710998
224	0xbeb4142d	-0.35171643
225	0x3e724d46	0.2366229
226	0x3e892582	0.2678643
227	0x3e03f1c0	0.12885189
228	0xbe7c70b3	-0.24652366
229	0xbeb2a7bb	-0.34893593
230	0xbe930525	-0.28714862
231	0x3e86fc75	0.26364484
232	0x3e565455	0.20930608
233	0x3eac8907	0.33698294
234	0x3e650a01	0.22367097
235	0x3df33d8d	0.11876974
236	0x3d135647	0.035970952
237	0xbe6a977f	-0.22909354
238	0xbe8a3d8e	-0.27000087
239	0xbe950b78	-0.29110312
240	0x3e143472	0.14473131
241	0xbe31bfd8	-0.17358339
242	0xbd91b8f1	-0.07115353
243	0xbe505aeb	-0.20347182
244	0xbd83f1a7	-0.06442576
245	0xbe7ed0c1	-0.24884321
246	0xbe6c8fce	-0.23101732
247	0x3df02f2d	0.11727748
248	0xbdd73173	-0.105074786
249	0x3e5f808a	0.21826378
250	0xbde84a55	-0.11342303
251	0xbe84ca34	-0.2593552
252	0xbd7f82c7	-0.06238058
253	0xbe2f7f4f	-0.17138408
254	0xbddd867e	-0.10816668
255	0xbeac5461	-0.33658126

lstms.weight_hh_l0 f4 [32, 8]
0	0x3e5b608b	0.21423547
1	0xbe87e37b	-0.2654074
2	0x3e2c5a11	0.16831233
3	0x3e386b47	0.18009673
4	0x3e81537d	0.2525901
5	0xbe963bfe	-0.29342645
6	0x3e823043	0.25427446
7	0xbe2b2784	-0.16714293
8	0x3e065766	0.13119277
9	0x3ea9ff77	0.33202717
10	0xbd4c3c67	-0.04986229
11	0xbb333023	-0.0027341924
12	0xbda6b46a	-0.0813988
13	0xbe9725fa	-0.2952116
14	0x3e2dbe4f	0.16967128
15	0xbeb3b37d	-0.35097876
16	0x3e713e5b	0.23558943
17	0x3e7e26e3	0.24819522
18	0x3eb1ed8c	0.34751546
19	0xbd8925c0	-0.06696653
20	0xbe94bbab	-0.2904943
21	0x3d8b4467	0.06800156
22	0x3e480003	0.19531254
23	0xbeb42b8d	-0.35189477
24	0xbda45a8e	-0.080250844
25	0xbe5906ac	-0.21193951
26	0xbcfd5271	-0.0309231
27	0xbe323348	-0.17402375
28	0xbe13fd5b	-0.14452116
29	0xbde5dd62	-0.11223866
30	0xbeac05fe	-0.33598322
31	0x3e948719	0.2900932
32	0x3e97c111	0.29639485
33	0xbd632bb0	-0.055461586
34	0xbd24efdd	-0.040267814
35	0xbe13c154	-0.14429218
36	0xbea378ca	-0.31928092
37	0xbeb02870	-0.3440585
38	0x3e068e03	0.1314011
39	0xbe46c6a4	-0.19411713
40	0xbe68bf0f	-0.22729133
41	0xbce1fab4	-0.027585365
42	0xbdf12036	-0.11773722
43	0xbdea410a	-0.114381865
44	0x3c3a1faf	0.011360093
45	0xbd9995f7	-0.07499307
46	0xbdf94f0f	-0.12173282
47	0xbe2d58a4	-0.16928345
48	0xbe935189	-0.28773144
49	0x3e97c938	0.29645705
50	0xbe10e21a	-0.14148751
51	0x3dbfdd9a	0.09368439
52	0xbdfb3aeb	-0.12267097
53	0x3ceb5b98	0.028730199
54	0x3ea8c3b0	0.32961798
55	0x3e26cca7	0.16289006
56	0xbe9cdf0d	-0.30638924
57	0x3e0fb1b4	0.14032632
58	0x3eabd4d0	0.335608
59	0x3dbe7e20	0.093014
60	0x3e72b83c	0.23703092
61	0x3eb276f7	0.34856388
62	0xbd5de638	-0.05417463
63	0x3d964915	0.07338158
64	0xbe7ba12c	-0.24573201
65	0xbd95373c	-0.07285926
66	0x3e860f5b	0.2618359
67	0x3e3998fd	0.18124767
68	0xbe651816	-0.2237247
69	0xbe91281d	-0.28350917
70	0xbe776771	-0.24160554
71	0xbeb2a4d9	-0.34891394
72	0xbe8bae7c	-0.2728156
73	0xbdb30ffc	-0.08743283
74	0x3e7454e6	0.23860511
75	0x3d726537	0.059178557
76	0xbe89af2e	-0.26891464
77	0xbe9137d1	-0.28362897
78	0x3e341af4	0.17588407
79	0xbe86a650	-0.2629876
80	0xbd324ebf	-0.04353213
81	0x3e2dac11	0.1696017
82	0xbe278e4d	-0.16362877
83	0xbd1de81a	-0.038551427
84	0xbcfc1b94	-0.030774869
85	0xbdab4dfd	-0.083644845
86	0xbe3790b4	-0.17926294
87	0xbea15e1a	-0.31517106
88	0xbe925408	-0.28579736
89	0xbe41db9b	-0.18931429
90	0x3eaed5d6	0.3414752
91	0xbe2edeb8	-0.17077148
92	0xbe731e7d	-0.23742099
93	0x3daf831c	0.08569929
94	0x3dc7902d	0.09744296
95	0x3e465d51	0.19371535
96	0x3e8998b3	0.26874313
97	0x3e499c27	0.19688474
98	0xbeb37b19	-0.35054854
99	0x3d006f51	0.03135616
100	0x3e5b4e58	0.21416605
101	0xbd05d8ac	-0.032677338
102	0xbe555783	-0.20834164
103	0x3eac92ac	0.33705652
104	0xbe07699c	-0.1322388
105	0xbe4e1fee	-0.20129368
106	0xbea332eb	-0.31874785
107	0x3c815f8e	0.015792634
108	0x3e206e6b	0.15667121
109	0x3da048a8	0.07826358
110	0x3d8f2fa4	0.069915086
111	0xbe894865	-0.26813045
112	0xbea90d39	-0.330179
113	0x3bcc0233	0.006225848
114	0x3ea50f42	0.32238203
115	0x3e50de2a	0.20397249
116	0xbe52ca94	-0.2058509
117	0xbd3bfb9c	-0.04589425
118	0xbe8571c9	-0.26063374
119	0xbe2ea7eb	-0.17056243
120	0x3d832114	0.064027935
121	0x3e4524dd	0.19252343
122	0x3e95f36b	0.29287276
123	0xbea631e8	-0.3245995
124	0x3e721087	0.23639117
125	0xbe7f57d0	-0.24935842
126	0x3e079256	0.13239416
127	0x3e992fcf	0.29919288
128	0x3ba2af2d	0.0049647302
129	0x3ea4b16a	0.32166606
130	0xbe9a3ce0	-0.3012457
131	0xbe0a48b4	-0.13504297
132	0x3e5328fd	0.20621105
133	0xbd9dc0d0	-0.07702792
134	0xbd943803	-0.07237246
135	0xbe16e50b	-0.1473581
136	0x3e798e34	0.24370652
137	0x3e3194c4	0.17341906
138	0x3dc08f38	0.09402317
139	0xbe4b73dc	-0.19868416
140	0xbe92f13f	-0.2869968
141	0x3d1ca220	0.038240552
142	0x3dd6875f	0.10475039
143	0xbe272855	-0.16323979
144	0xbdca985c	-0.098923415
145	0x3e74825d	0.23877855
146	0x3ce6b819	0.028163956
147	0x3c82ad39	0.01595174
148	0xbdb23222	-0.08700968
149	0xbea3ede3	-0.3201743
150	0xbeaa346c	-0.3324312
151	0xbe2d0f58	-0.16900384
152	0xbe380831	-0.17971875
153	0x3de196c2	0.11015083
154	0xbdd2c965	-0.10292319
155	0xbe0da335	-0.1383179
156	0x3eac96d8	0.33708835
157	0x3dfc3673	0.12315073
158	0x3e810c92	0.25204903
159	0xbe2f447d	-0.1711597
160	0xbe13e17b	-0.14441483
161	0x3e051059	0.12994517
162	0xbe7137a5	-0.23556383
163	0xbe6caa88	-0.23111928
164	0xbc8be40b	-0.017076513
165	0xbe046b65	-0.12931593
166	0xbe87b3dd	-0.26504412
167	0x3e56bf19	0.20971335
168	0x3e9191ac	0.2843145
169	0x3d6aecab	0.05735461
170	0xbd7c2498	-0.061558336
171	0xbea7ac5f	-0.32748696
172	0xbe03de56	-0.12877783
173	0x3db856f5	0.09000961
174	0x3e2ab661	0.16671135
175	0xbd371276	-0.04469534
176	0xbe0f220d	-0.13977833
177	0x3e49bcc5	0.19700916
178	0xbe9029eb	-0.2815698
179	0x3e64d0a0	0.22345209
180	0xbe0c7464	-0.13716274
181	0x3bb15113	0.005411276
182	0xbd8f16d4	-0.06986776
183	0x3d2f92a0	0.042864442
184	0xbddad0a5	-0.10684327
185	0x3e839fc1	0.2570782
186	0xbc169776	-0.009191385
187	0x3e8d4db8	0.27598357
188	0x3eae0beb	0.33993468
189	0xbe3061c9	-0.17224802
190	0xbe840e25	-0.2579204
191	0x3e913b70	0.2836566
192	0x3e8dd99b	0.27705082
193	0xbe8a3782	-0.26995474
194	0xbc70d218	-0.014698528
195	0xbeb28207	-0.34864828
196	0xbe942ea9	-0.2894185
197	0x3d8bd9a2	0.068286195
198	0x3dc0a12f	0.09405743
199	0x3d997d9d	0.07494662
200	0xbdc511d4	-0.09622541
201	0x3ea70121	0.3261805
202	0x3d67fc8f	0.056637343
203	0xbe55a22e	-0.20862648
204	0xbca3f899	-0.020016002
205	0x3dade23a	0.08490415
206	0x3dfd910b	0.123811804
207	0xbe7ffd98	-0.24999082
208	0x3e181f04	0.14855582
209	0xbe444fb1	-0.19171025
210	0xbe8fd0e7	-0.28089067
211	0xbe3a6b7c	-0.18205065
212	0x3eae93a5	0.3409702
213	0x3e99f2d4	0.30068076
214	0x3ea21999	0.31660154
215	0x3e548550	0.2075398
216	0x3e88bff3	0.26708946
217	0xbd41d5cb	-0.04732303
218	0xbe1d8c6f	-0.15385602
219	0x3e34e51e	0.17665526
220	0xbe3b9a29	-0.18320526
221	0xbe7453d9	-0.2386011
222	0xbde738f8	-0.11290163
223	0x3d97f44f	0.07419645
224	0x3e3a6054	0.18200809
225	0xbe0c9e7c	-0.13732332
226	0xbe551571	-0.2080896
227	0x3d435894	0.047691897
228	0xbe5565ca	-0.2083961
229	0xbe6bb59c	-0.23018497
230	0x3e3cb69e	0.18429038
231	0xbd734487	-0.059391525
232	0x3e9d5cf4	0.3073498
233	0x3eb017ab	0.34393057
234	0x3e0e1810	0.13876367
235	0x3df93261	0.12167812
236	0x3da6be45	0.0814176
237	0x3bb56f5e	0.0055369576
238	0xbcd2a7da	-0.025714803
239	0x3b9f3a95	0.0048592784
240	0x3e0731b7	0.13202558
241	0x3ea84e76	0.3287236
242	0xbdbba6b6	-0.09162657
243	0xbe190a1a	-0.1494526
244	0xbdaf5899	-0.085618205
245	0xbe2ee8e0	-0.17081022
246	0x3d763e0a	0.06011776
247	0x3e871f21	0.26390937
248	0x3e8d8d93	0.27647075
249	0x3e2638a0	0.16232538
250	0xbe8537c4	-0.26019108
251	0xbe424ed1	-0.18975379
252	0xbd9f168b	-0.077679716
253	0xbd857706	-0.065168425
254	0x3cee3702	0.029078964
255	0xbea62bac	-0.32455194

lstms.bias_ih_l0 f4 [32]
0	0x3def90cd	0.116975404
1	0xbe8a1838	-0.26971602
2	0xbe2b0963	-0.167028
3	0xbe967f0e	-0.2939381
4	0x3e9db9bf	0.30805776
5	0xbeab6a17	-0.33479378
6	0x3e888e12	0.2667089
7	0xbc42bada	-0.011885369
8	0xbd286b2c	-0.041117832
9	0x3e627289	0.22114004
10	0xbd05d977	-0.032678094
11	0x3e630dd5	0.22173245
12	0x3e82e133	0.25562438
13	0xbe9d29ae	-0.30695862
14	0x3e0b4e83	0.13604169
15	0x3d88b0cb	0.066743456
16	0x3d9baf63	0.07601812
17	0x3d324517	0.04352292
18	0x3dc60ebd	0.0967078
19	0xbe2e2a30	-0.17008281
20	0xbd39474f	-0.04523402
21	0x3eabfd76	0.33591813
22	0x3e733c49	0.23753466
23	0xbc599ea5	-0.013282453
24	0xbea15c47	-0.31515715
25	0x3cabb657	0.02096097
26	0xbe48444a	-0.195573
27	0x3e99cd67	0.30039522
28	0xbe5bca03	-0.2146378
29	0x3c64764c	0.01394422
30	0xbda0b422	-0.078468576
31	0x3d80da33	0.06291618

lstms.bias_hh_l0 f4 [32]
0	0x3eade530	0.3396392
1	0x3d099a3f	0.033594366
2	0x3e85dc4a	0.2614463
3	0x3e8c82d9	0.2744358
4	0x3e922388	0.28542733
5	0xbdfa0fa8	-0.122100174
6	0xbda1f1d9	-0.07907457
7	0x3e2e7ae8	0.17039073
8	0xbdc593ca	-0.09647329
9	0x3e298798	0.16555631
10	0xbd9e3001	-0.07724
11	0xbe758db7	-0.23979841
12	0x3e135d8d	0.14391156
13	0x3d5e073b	0.054206114
14	0x3e216a12	0.15763119
15	0x3eb3d716	0.35125035
16	0x3e772cfc	0.24138254
17	0x3ea775a7	0.3270695
18	0x3c9b04c7	0.018923176
19	0xbe9bb711	-0.30413106
20	0xbe7dfae0	-0.24802732
21	0xbe60e390	-0.21961808
22	0xbe9f85e3	-0.31156835
23	0xbe357892	-0.17721775
24	0xbe9dbf2b	-0.30809912
25	0xbea43689	-0.32072857
26	0xbe2a10dd	-0.16607995
27	0xbeabdb24	-0.3356563
28	0xbe5e394e	-0.21701548
29	0x3e32779c	0.1742844
30	0x3e96facc	0.29488218
31	0xbdd762d7	-0.10516899

lstms.weight_ih_l1 f4 [32, 8]
0	0xbd75bb22	-0.059992917
1	0x3e08eb9b	0.13371126
2	0x3eb5ce88	0.35509133
3	0xbe12767e	-0.14303014
4	0x3e5f113a	0.21783915
5	0xbebe6d7d	-0.37192908
6	0x3d3112a0	0.043230653
7	0x3e9fe8c2	0.31232268
8	0x3dc3f74d	0.09568653
9	0x3c805f1f	0.015670357
10	0x3eb2e2c9	0.34938648
11	0x3d29f8f2	0.04149718
12	0x3c9f4e96	0.019446652
13	0xbcc2b2e8	-0.02376695
14	0x3e0cab2e	0.13737175
15	0x3e9d4af1	0.30721238
16	0xbe77217a	-0.24133864
17	0xbd8a3432	-0.06748237
18	0x3eb13fca	0.3461898
19	0xbe6e464e	-0.23269007
20	0xbce7e579	-0.028307663
21	0xbed53eaf	-0.41649386
22	0x3e7caaa0	0.24674463
23	0x3d27b7be	0.040946715
24	0xbe243cab	-0.16038768
25	0x3de4acbf	0.11165761
26	0x3e3de9d9	0.18546237
27	0xbdb9d164	-0.09073141
28	0xbd8d0cc7	-0.06887203
29	0xbecedcec	-0.40402925
30	0xbe663757	-0.22482048
31	0xbd6c5da5	-0.057706494
32	0x3e9ab3e3	0.30215368
33	0x3e8b854f	0.27250144
34	0x3f3068a9	0.689097
35	0xbe2cbe43	-0.16869454
36	0xbe6cd938	-0.23129737
37	0x3e59d06f	0.21270917
38	0x3e000f34	0.125058
39	0x3c19e584	0.0093931
40	0x3db2fac2	0.087392345
41	0xbeb7601b	-0.3581551
42	0x3ebef9bf	0.37299916
43	0x3ec224db	0.37918743
44	0xbdb292a5	-0.087193765
45	0xbe039694	-0.1285041
46	0xbe964e55	-0.29356638
47	0xbe4a86ea	-0.19778028
48	0x3d234eef	0.0398702
49	0xbe96a1ee	-0.29420418
50	0x3efefa74	0.49800456
51	0x3e3d1122	0.18463567
52	0xbeb11177	-0.34583637
53	0xbb78ea67	-0.0037981512
54	0xbe6f6207	-0.23377238
55	0xbe30b180	-0.17255211
56	0x3e2399ca	0.15976635
57	0x3e60dc17	0.21958958
58	0x3eae2251	0.34010556
59	0xbde596a7	-0.11210375
60	0xbea3aec1	-0.31969264
61	0xbe916ee6	-0.2840492
62	0xbe9e81d9	-0.3095844
63	0xbda5b84f	-0.08091795
64	0x3de04672	0.109509364
65	0xbebd9834	-0.37030184
66	0x3f0c074b	0.5469863
67	0x3e859258	0.26088214
68	0xbeb13535	-0.34610906
69	0xbe56cf65	-0.20977552
70	0x3dec295d	0.11531327
71	0xbd94c4c5	-0.07264093
72	0xbccbfd75	-0.024901131
73	0xbe458313	-0.19288282
74	0x3efda52b	0.49540076
75	0xbe2855a2	-0.16438916
76	0x3e961d9b	0.29319462
77	0xbd36abd5	-0.044597466
78	0x3d918e2a	0.07107194
79	0x3e8d380d	0.27581826
80	0xbd1eb00e	-0.038742118
81	0xbe747b64	-0.23875195
82	0x3e5308ed	0.20608874
83	0x3ea5fe8a	0.3242076
84	0xbe865044	-0.26233113
85	0x3ca12327	0.019670082
86	0xbeb1e77d	-0.34746924
87	0x3e3dd151	0.18536879
88	0x3e10a418	0.14125097
89	0xbc3c3e4b	-0.011489461
90	0x3eb280df	0.34863946
91	0x3cdc2876	0.026874762
92	0x3e485622	0.19564107
93	0xbeadd887	-0.3395426
94	0xbd54aa45	-0.051920194
95	0x3e209b0b	0.15684144
96	0x3ec268cc	0.3797058
97	0x3e10d86f	0.14145063
98	0x3d122f63	0.035689723
99	0x3e9f0223	0.31056318
100	0xbda176bc	-0.07883975
101	0xbdfe1fe8	-0.124084294
102	0xbea487bd	-0.3213481
103	0xbd63f5d5	-0.055654366
104	0x3e915a5b	0.28389248
105	0x3c58e584	0.013238315
106	0x3d38e5ac	0.045140907
107	0x3e145e46	0.14489087
108	0xbde82a86	-0.11336236
109	0x3e89889d	0.2686204
110	0xbe9d1dd7	-0.30686828
111	0xbde4b7e3	-0.11167886
112	0xbe9e7c05	-0.30953994
113	0xbe324715	-0.17409928
114	0x3e9c8891	0.30572942
115	0x3ec01964	0.37519372
116	0x3d73377f	0.059379097
117	0x3e857b06	0.26070422
118	0x3d8daad2	0.06917347
119	0x3e511722	0.2041898
120	0x3e99b0ce	0.30017704
121	0x3e876aa6	0.26448554
122	0x3d3839dd	0.044977058
123	0x3eb653ec	0.35610902
124	0x3e5b5000	0.21417236
125	0xbe61b6da	-0.22042409
126	0xbe2cc41d	-0.16871686
127	0xbe97d44b	-0.29654154
128	0x3d38a48d	0.045078803
129	0xbe66f420	-0.22554064
130	0xbe696056	-0.22790655
131	0x3d8cf24f	0.06882154
132	0xbe9d4761	-0.3071852
133	0x3e296070	0.16540694
134	0xbceb8ef3	-0.028754687
135	0x3e2562bc	0.16150945
136	0x3e5d0c72	0.21586779
137	0xbec64337	-0.38723156
138	0x3f37e443	0.71832675
139	0x3ea19b19	0.31563643
140	0x3e100cce	0.14067385
141	0xbed57935	-0.41694036
142	0xbe0153e6	-0.12629661
143	0xbdd1d813	-0.10246291
144	0xbde9a632	-0.11408652
145	0x3e824241	0.25441173
146	0xbeb0e118	-0.34546733
147	0x3e813451	0.25235227
148	0xbe0798c7	-0.13241874
149	0x3e57a0e4	0.21057469
150	0x3e00cfc5	0.12579258
151	0xbe96b70d	-0.29436532
152	0xbeb8b881	-0.36078265
153	0xbe041324	-0.12897927
154	0xbe18cdfb	-0.14922325
155	0xbeb80dbe	-0.35947984
156	0xbe9d91e2	-0.30775362
157	0x3e975e91	0.29564336
158	0x3e435492	0.1907523
159	0x3e94de75	0.2907597
160	0xbe7848e8	-0.24246562
161	0xbea9acb0	-0.33139563
162	0x3f184049	0.5947309
163	0x3ead4e2a	0.33848697
164	0x3e58a13a	0.21155253
165	0xbd30fe52	-0.04321129
166	0x3deea338	0.11652225
167	0x3eabcf6f	0.33556697
168	0xbe402003	-0.18762212
169	0xbe6202d6	-0.22071394
170	0x3f22f7ee	0.6365956
171	0xbe52bf5a	-0.20580807
172	0xbe479e21	-0.19493915
173	0x3e2c8a79	0.16849698
174	0x3de4765f	0.1115539
175	0x3de9ed7e	0.11422251
176	0xbe417943	-0.18893914
177	0x3d5433b8	0.051807135
178	0xbd9fae20	-0.077968836
179	0xbe74f007	-0.23919688
180	0x3b357b8b	0.0027692046
181	0x3e886220	0.26637363
182	0xbe79ef87	-0.24407779
183	0x3eafcd42	0.34336287
184	0xbe46c07d	-0.19409366
185	0xbd333f41	-0.043761496
186	0xbef14a30	-0.47126913
187	0xbe7f4831	-0.24929883
188	0xbeb1a107	-0.34693167
189	0x3e96435d	0.2934827
190	0x3dc05e5d	0.09392998
191	0xbea98af8	-0.33113837
192	0xbe0ed4f7	-0.13948427
193	0x3e911fc0	0.28344536
194	0x3f25e1ee	0.64797866
195	0x3e4e9fb8	0.20178115
196	0xbe5896bd	-0.21151252
197	0xbe6ae32b	-0.2293822
198	0xbd5a9adc	-0.05337034
199	0xbd846b51	-0.064657815
200	0xbe3cba39	-0.18430413
201	0xbd2bd234	-0.041948512
202	0x3f025956	0.50917566
203	0x3cab8d22	0.02094132
204	0x3d48d433	0.049030494
205	0xbe688b88	-0.22709477
206	0x3dbc7147	0.092012934
207	0x3e088a17	0.13333927
208	0xbe06f532	-0.13179472
209	0xbed91889	-0.4240153
210	0x3f2bfda0	0.67183876
211	0x3e18a692	0.14907292
212	0xbe381d80	-0.17980003
213	0x3e80ebdb	0.25179943
214	0xbe23bb33	-0.1598938
215	0x3e74a57f	0.23891257
216	0x3e72f7ec	0.23727387
217	0xbebccf72	-0.36877018
218	0x3f3fa628	0.7486291
219	0xbe834f5e	-0.2564649
220	0xbe488e04	-0.19585425
221	0xbe136595	-0.14394219
222	0xbe7407e9	-0.23831142
223	0x3eb0d6ee	0.34538978
224	0xbbf1e625	-0.0073821717
225	0x3d8e90b6	0.06961195
226	0x3e4985fe	0.1968002
227	0x3e88f957	0.2675273
228	0xbde0ffd4	-0.10986295
229	0xbeb3de19	-0.35130385
230	0x3d53c0e2	0.05169762
231	0x3e2f64d7	0.17128311
232	0x3ebd0194	0.36915267
233	0xbe90098e	-0.2813229
234	0x3e986912	0.29767662
235	0x3dfde8ec	0.12397942
236	0x3dc46d6c	0.09591183
237	0x3d567393	0.052356314
238	0x3e46b6cc	0.19405669
239	0xbda42fee	-0.08016954
240	0x3e888abd	0.2666835
241	0x3e403493	0.18770055
242	0x3eca11cf	0.39466712
243	0x3ea0cf54	0.3140818
244	0x3e30e564	0.17275006
245	0x3e61c1fa	0.22046652
246	0xbe4dbcb4	-0.20091516
247	0xbe32c727	-0.17458783
248	0xbd55ebea	-0.05222694
249	0xbd38bbbc	-0.045100912
250	0x3f23dd0b	0.6400916
251	0xbe16748a	-0.14692894
252	0x3e354413	0.1770175
253	0xbe57c927	-0.21072827
254	0x3e5ab5ff	0.21358489
255	0xbc898240	-0.01678574

lstms.weight_hh_l1 f4 [32, 8]
0	0xbf2e809b	-0.68164986
1	0x3da82402	0.08209993
2	0xbf0924e4	-0.53571916
3	0xbdfb3359	-0.12265653
4	0x3d952cd7	0.07283943
5	0x3e740eea	0.23833814
6	0xbe3a4c11	-0.1819308
7	0xbef61407	-0.48062155
8	0xbefa3f8a	-0.488766
9	0xbd0f741b	-0.035022836
10	0xbf14b5bb	-0.580898
11	0xbf2d7438	-0.6775546
12	0x3e99103d	0.298952
13	0x3e5d17e8	0.21591151
14	0xbe848dd9	-0.2588947
15	0xbebba9bb	-0.36652932
16	0xbeb59577	-0.35465595
17	0x3f1ce7f6	0.61291444
18	0xbe33165c	-0.17488998
19	0xbeedd4ac	-0.46451318
20	0x3d20ba0c	0.039239928
21	0x3ee372f3	0.44423637
22	0xbeea8553	-0.45804843
23	0xbdd3a49e	-0.103341326
24	0xbeb213db	-0.34780774
25	0x3eef7e46	0.46776026
26	0xbc752fa8	-0.014964975
27	0xbd213625	-0.039358277
28	0x3efc9484	0.49332058
29	0x3dcd42fd	0.100225426
30	0xbbfba54a	-0.007679616
31	0xbefb7d82	-0.49119192
32	0xbf159588	-0.5843129
33	0x3f14f5bb	0.58187455
34	0xbc8f4cdc	-0.017492704
35	0xbe4c9c1f	-0.1998143
36	0x3eb5845e	0.3545255
37	0xbb5cb80a	-0.0033679032
38	0xbe9dbca6	-0.3080799
39	0x3d5e1c7e	0.05422639
40	0xbebfec82	-0.3748513
41	0x3e992b76	0.2991597
42	0xbeb40d53	-0.35166416
43	0xbed70506	-0.4199602
44	0x3f0b5bb5	0.5443681
45	0x3e9c9f4b	0.3059028
46	0xbcd69b08	-0.026196972
47	0xbea97cd4	-0.3310305
48	0xbee8811a	-0.45410997
49	0x3edb79ac	0.42866266
50	0xbe75c64e	-0.24001428
51	0xbdd14165	-0.10217551
52	0x3f1a7308	0.60331774
53	0x3f24fc19	0.6444717
54	0xbb0c283d	-0.0021386289
55	0xbebc5eb8	-0.36791015
56	0xbf3e688b	-0.7437827
57	0x3e9a5ac8	0.30147386
58	0xbe802acf	-0.2503266
59	0xbeb67268	-0.3563416
60	0x3e7a39a8	0.24436057
61	0x3e8ebc73	0.2787815
62	0x3cabf788	0.020992056
63	0xbdf2d78a	-0.11857517
64	0xbecdd069	-0.40198067
65	0x3da07b99	0.078360744
66	0xbea0f477	-0.31436512
67	0xbec030a2	-0.37537104
68	0x3f10d37e	0.5657271
69	0x3ed0365f	0.40666482
70	0x3dd05474	0.10172358
71	0xbe684153	-0.22681169
72	0xbed33228	-0.41249204
73	0x3eb18ee8	0.3467934
74	0xbf11ae77	-0.5690684
75	0xbe626413	-0.22108488
76	0x3e8707c4	0.26373112
77	0x3d46f786	0.0485759
78	0xbf003384	-0.50078607
79	0x3dc43e30	0.09582174
80	0xbe32712e	-0.17425987
81	0x3ee3df4c	0.445063
82	0x3d37bc5a	0.04485736
83	0xbeea86bd	-0.45805922
84	0x3e9257bf	0.2858257
85	0x3ede752d	0.43448773
86	0xbeace492	-0.33768135
87	0xbeaeda62	-0.34150988
88	0xbf391cd7	-0.7230963
89	0x3e9c1b21	0.30489448
90	0xbedc8415	-0.4306952
91	0xbe5e7cbd	-0.21727271
92	0x3f1a85b6	0.60360277
93	0x3df0e00d	0.11761484
94	0xbea3cfc1	-0.3199444
95	0x3c04bdb9	0.008101874
96	0xbf04791a	-0.51747286
97	0x3e8cb911	0.27484944
98	0x3caa3840	0.020778775
99	0xbef0b290	-0.47011232
100	0x3db49003	0.088165306
101	0x3de09ba1	0.10967184
102	0xbec86b9e	-0.39144605
103	0xbeefb838	-0.46820235
104	0xbf1001fb	-0.5625302
105	0x3ecb4a93	0.39705333
106	0xbe4e2284	-0.20130354
107	0xbec76101	-0.38941196
108	0x3cd045c3	0.02542389
109	0x3e1b625c	0.1517424
110	0xbecac76c	-0.39605272
111	0xbebb2cee	-0.36557716
112	0xbf676ff6	-0.90405214
113	0x3e8e886f	0.27838466
114	0xbef0e301	-0.4704819
115	0xbf01279d	-0.5045107
116	0xbcafb02a	-0.021446306
117	0x3ebd93ed	0.3702692
118	0xbed3b0f5	-0.41345945
119	0xbeafe80e	-0.3435673
120	0xbe0e5d03	-0.13902669
121	0x3ee6c751	0.4507394
122	0xbd91d69c	-0.071210116
123	0xbf2114c0	-0.62922287
124	0x3d8daf60	0.06918216
125	0x3e1a0e7e	0.15044591
126	0x3cd272fd	0.025689596
127	0xbe5b0fcd	-0.21392746
128	0xbbabe59e	-0.0052458784
129	0xbe61f1f7	-0.22064959
130	0xbd4b9cca	-0.049710073
131	0x3e1dc611	0.15407588
132	0xbeb1177a	-0.34588224
133	0x3da52395	0.08063427
134	0x3ea46b35	0.32113042
135	0x3e269e66	0.16271362
136	0xbec805ab	-0.39066824
137	0x3dbb2989	0.091387816
138	0xbd7e44af	-0.06207722
139	0xbd947e42	-0.07250644
140	0x3eb6f71e	0.3573541
141	0x3db35971	0.08757294
142	0x3ddcfa23	0.10789897
143	0xbe6fe3b3	-0.23426704
144	0x3e87945e	0.26480383
145	0x3d1116b5	0.035422046
146	0x3ef56864	0.47931206
147	0x3f0d8f63	0.55296916
148	0xbe0f66c8	-0.14004052
149	0xbeaa542e	-0.3326735
150	0x3eb9225f	0.36159036
151	0x3ef8cae5	0.48592296
152	0x3dc171ad	0.0944551
153	0xbe831fd9	-0.25610235
154	0xbcaafc70	-0.020872325
155	0x3e999e98	0.3000381
156	0xbe02374f	-0.12716411
157	0xbe9e7145	-0.30945793
158	0x3e387ce1	0.18016388
159	0x3ebc5b46	0.36788386
160	0xbecc27d7	-0.39874145
161	0xbdc56009	-0.09637458
162	0x3d9ff949	0.07811219
163	0xbec84c15	-0.39120546
164	0x3e5213e2	0.20515397
165	0x3e80edef	0.2518153
166	0xbe5e25a6	-0.21694049
167	0xbf074c27	-0.52850574
168	0xbe58121e	-0.21100661
169	0x3d03cdf9	0.032178853
170	0xbec40ca3	-0.3829089
171	0xbe00571e	-0.12533233
172	0x3d7e595b	0.062096935
173	0x3d4f1947	0.050561216
174	0xbe9e55d4	-0.30924857
175	0xbea40d80	-0.3204155
176	0x3ea20483	0.31644067
177	0xbe911480	-0.28335953
178	0x3e9212ec	0.2853006
179	0xbda24746	-0.079237506
180	0xbeecf7e3	-0.46282873
181	0xbe521fb8	-0.20519912
182	0x3e6cb205	0.23114784
183	0x3ec3e8c7	0.38263533
184	0x3de0bfd6	0.1097409
185	0xbd60e2e8	-0.054903895
186	0x3ebfb703	0.37444314
187	0x3ec0ffb7	0.37695095
188	0xbf0d3106	-0.5515293
189	0xbea94a7c	-0.3306464
190	0xbe086649	-0.13320269
191	0xbd85c894	-0.06532398
192	0xbeb8189a	-0.3595627
193	0x3ee86719	0.45391157
194	0xbeb76bbd	-0.35824385
195	0xbf3fb228	-0.7488122
196	0x3f14fa29	0.58194214
197	0x3e8f2253	0.27955875
198	0xbea7b31f	-0.32753846
199	0xbf261ae5	-0.6488479
200	0xbf2fd188	-0.68679094
201	0x3e576248	0.21033585
202	0xbf05d633	-0.5227997
203	0xbe6802af	-0.22657274
204	0x3f3c3e5a	0.7353264
205	0x3ea84fba	0.32873327
206	0xbf01d994	-0.5072262
207	0xbf0739d0	-0.5282259
208	0xbf5ea1af	-0.8696546
209	0x3f489024	0.7834494
210	0xbf01ac74	-0.5065377
211	0xbef2df48	-0.47435975
212	0x3ed136eb	0.40862212
213	0x3eae7fe2	0.34081942
214	0xbee1d99b	-0.44111332
215	0xbeb30a24	-0.34968674
216	0xbf090b56	-0.5353292
217	0x3ec7d529	0.39029816
218	0xbe617943	-0.22018914
219	0xbf265baf	-0.6498365
220	0x3ec1c5be	0.37846178
221	0x3ec7c09e	0.39014143
222	0xbe509b3f	-0.20371722
223	0xbf0932fe	-0.5359343
224	0xbf23cd33	-0.63984984
225	0x3ec85782	0.39129263
226	0xbf21c9b8	-0.63198423
227	0xbf5f1417	-0.8714003
228	0x3e932a21	0.2874308
229	0x3f3c7b18	0.73625326
230	0xbe66903f	-0.22515963
231	0xbe369a75	-0.17832358
232	0xbf4cfebe	-0.80076206
233	0x3f298494	0.66217923
234	0xbf326c09	-0.696961
235	0xbe9b6c09	-0.30355862
236	0x3f459b8b	0.77190465
237	0x3f3e556d	0.743491
238	0xbe56a07b	-0.20959656
239	0xbe677142	-0.22601798
240	0xbf159a75	-0.5843881
241	0x3f28f0ee	0.6599263
242	0xbf213ba1	-0.6298161
243	0xbec5ddf1	-0.3864589
244	0x3eddc15c	0.43311584
245	0x3efb65d6	0.49101132
246	0xbf4b8e61	-0.7951413
247	0xbf1098bd	-0.5648306
248	0xbf44d95e	-0.76894176
249	0x3ea7ec3e	0.32797426
250	0xbf2fa49e	-0.6861056
251	0xbf51e204	-0.819855
252	0x3f09d574	0.5384133
253	0x3f30fa94	0.6913235
254	0xbe043590	-0.12911057
255	0xbe544dd5	-0.20732816

lstms.bias_ih_l1 f4 [32]
0	0x3ed4627b	0.41481385
1	0x3e5e51ed	0.2171094
2	0x3f2deaf0	0.6793661
3	0x3f3e7729	0.74400574
4	0x3e5770f9	0.2103919
5	0x3f275a1d	0.65371877
6	0x3f5a34e8	0.8523698
7	0x3ee78294	0.4521681
8	0x3d1d01d6	0.03833183
9	0x3effdc6b	0.49972853
10	0x3ed54725	0.4165584
11	0x3ede4764	0.43413842
12	0x3d8c64d5	0.0685517
13	0x3eeba8ae	0.4602713
14	0xbd3b7db8	-0.04577419
15	0x3f14f503	0.5818636
16	0xbf0ba28d	-0.5454491
17	0x3f0af535	0.54280406
18	0xbec0a438	-0.3762529
19	0xbe972976	-0.2952382
20	0x3eb2c682	0.34917074
21	0x3f027e2a	0.5097376
22	0xbf0d5efc	-0.5522306
23	0xbf2387a5	-0.6387885
24	0x3ecfc4fe	0.4057998
25	0x3f453190	0.7702875
26	0x3ed451b6	0.4146859
27	0x3f25d231	0.6477385
28	0x3ed25431	0.41079858
29	0x3f41631c	0.75541854
30	0x3f38d972	0.72206795
31	0x3f0d3bef	0.55169576

lstms.bias_hh_l1 f4 [32]
0	0x3ed5af03	0.41735086
1	0x3e8e4611	0.2778783
2	0x3f0efe66	0.5585693
3	0x3ead4e71	0.3384891
4	0x3f4dfb00	0.8046112
5	0x3e3fad2b	0.18718402
6	0x3f3620ec	0.71143985
7	0x3f4880a2	0.7832128
8	0x3edb5793	0.4284025
9	0x3ea92be0	0.33041286
10	0xbd98bfe6	-0.07458477
11	0x3f0a43ab	0.54009503
12	0x3e7d1ce8	0.24718058
13	0xbd9b52fd	-0.07584188
14	0x3f0b744b	0.54474324
15	0x3db4894d	0.088152505
16	0xbed76100	-0.42066193
17	0x3f2742d9	0.65336376
18	0xbf312f7d	-0.69213086
19	0xbf239a04	-0.63906884
20	0x3eebf8fa	0.46088392
21	0x3ea26784	0.317196
22	0xbea599f9	-0.32344034
23	0xbf1a20d1	-0.60206324
24	0x3f0d5d88	0.5522084
25	0x3eac0a9c	0.33601844
26	0x3eaafc50	0.33395624
27	0x3e59fe50	0.21288419
28	0x3f3a9e4c	0.7289779
29	0x3f0eed4c	0.55830836
30	0x3e58a31e	0.21155974
31	0x3f351b60	0.70744896

dense.weight f4 [8, 240]
0	0x3c3cb67b	0.011518116
1	0x3c9615e5	0.018320987
2	0xbd2f8c27	-0.04285827
3	0x3ba57d54	0.0050503407
4	0x3d649614	0.05580719
5	0x3d444540	0.047917604
6	0xbd5a4949	-0.053292546
7	0x3d55b92f	0.052178558
8	0xbb44dbf3	-0.0030038327
9	0x3d1840a9	0.03717104
10	0x3d39db2c	0.045375034
11	0x3d4e3341	0.05034185
12	0xbd56b75b	-0.052420955
13	0x3d74bae9	0.059748564
14	0xbd3ff7d7	-0.046867218
15	0xbae4e828	-0.0017464207
16	0xbd5a9789	-0.05336717
17	0xbc06b310	-0.008221403
18	0xbbf336a4	-0.007422285
19	0xbc473264	-0.01215801
20	0xbc3c9453	-0.011509973
21	0x3c012402	0.00788212
22	0x3d79a8cc	0.060951993
23	0x3cfe3a03	0.031033522
24	0x3ce1b2de	0.02755111
25	0x3d0187ed	0.03162377
26	0x3d3b182d	0.045677353
27	0xbbec2032	-0.0072059864
28	0x3b816c6e	0.0039496934
29	0x3c811b0c	0.015759967
30	0xbd706e4d	-0.05869894
31	0xbd6f2a43	-0.058389913
32	0xba750d61	-0.0009348002
33	0xbca053cf	-0.019571213
34	0xbbaf602e	-0.0053520417
35	0xbc9ac6fb	-0.01889371
36	0x3c10789e	0.00881782
37	0x3d3548dc	0.044258937
38	0xbcc11a77	-0.02357219
39	0x3d39c8f4	0.04535766
40	0x3d2b7942	0.041863687
41	0xbd33f95d	-0.043938983
42	0xbd5cdf41	-0.05392385
43	0xbd663414	-0.05620201
44	0xbd16645a	-0.036716796
45	0xbcbc9ad7	-0.023023052
46	0xbbe0b5cc	-0.0068576094
47	0xbcb433f5	-0.021997431
48	0xbd2bb8d1	-0.0419243
49	0xbc753daf	-0.01496832
50	0xbce02741	-0.027362468
51	0x3d7365cc	0.059423253
52	0xbccff713	-0.025386369
53	0xbd352eec	-0.0442342
54	0x3ccc6515	0.024950543
55	0xbc23d9d5	-0.010000666
56	0x3d238405	0.039920826
57	0x3d3bad99	0.045819853
58	0x3d62ae5f	0.055342074
59	0xbd515f31	-0.051116172
60	0x3d2375aa	0.039907135
61	0x3d6595de	0.056051128
62	0xbd09ee1e	-0.033674352
63	0x3d596a53	0.053079914
64	0x3d1ec422	0.038761266
65	0x3bc98675	0.0061500617
66	0x3cdec7b2	0.027194832
67	0xbcd804f8	-0.026369557
68	0xbd6d7ead	-0.057982136
69	0x3c94614b	0.0181128
70	0x3c8f6228	0.01750286
71	0xbd465836	-0.04842397
72	0x3cb0ba8b	0.021573326
73	0xbd4bb8a7	-0.049736645
74	0x3d5390e9	0.05165187
75	0x3d7095f2	0.05873675
76	0x3c817f23	0.015807694
77	0xbd1ed07e	-0.038773052
78	0x3cf35a65	0.02970619
79	0x3b9c83b1	0.004776441
80	0x3bfce8d9	0.0077181873
81	0x3cd9c01c	0.026580863
82	0x3d396b4d	0.045268346
83	0xbd0102cd	-0.03149681
84	0xbc861985	-0.01636959
85	0x3c9dcec6	0.019263636
86	0x3baef88f	0.005339689
87	0x3d3bc145	0.045838613
88	0xbd3387d6	-0.043830715
89	0x3b435ed7	0.0029811168
90	0x3c0663c8	0.008202501
91	0xbcab1118	-0.020882174
92	0x3d2c6034	0.042083934
93	0x3c0de5c5	0.008660738
94	0xbd7b4d04	-0.061352745
95	0xbc5831d6	-0.013195476
96	0xbd20f197	-0.039292898
97	0x3c3d92a8	0.01157061
98	0xbc39e37d	-0.011345741
99	0xbd8ac65e	-0.06776117
100	0xbc6140ab	-0.013748328
101	0xbb98009e	-0.0046387454
102	0xbca9ed01	-0.020742895
103	0x3d598ec9	0.053114686
104	0xbcc62909	-0.024189489
105	0x3d3f6bcf	0.046733674
106	0x3c473197	0.012157819
107	0xbd6e7898	-0.058220476
108	0x3c56ff99	0.013122463
109	0x3d61389f	0.05498564
110	0xbd340bd2	-0.043956585
111	0xbd443929	-0.047906075
112	0x3d59117e	0.052995197
113	0x3d69e227	0.05710044
114	0xbd232a6d	-0.039835382
115	0x3d0fc970	0.035104215
116	0xbc29ae9c	-0.0103565715
117	0xbd7ec331	-0.062197868
118	0x3b49e29e	0.003080524
119	0x3c708e4f	0.0146823665
120	0xbcf2df44	-0.029647477
121	0x3ce2964a	0.027659554
122	0xbd71b4c2	-0.059010275
123	0x3d27e5b1	0.040990535
124	0x3d5892a5	0.052874226
125	0x3d17836e	0.036990575
126	0x3c159806	0.0091304835
127	0x3c7750ba	0.01509493
128	0xbd69c4a0	-0.05707228
129	0xbc3376d4	-0.010953624
130	0xbc236375	-0.009972443
131	0xbd2283a7	-0.039676335
132	0xbd4c4873	-0.04987378
133	0x3d37609e	0.044769876
134	0x3d2bd4a9	0.041950855
135	0xbd84aabd	-0.06477878
136	0x3c252ce9	0.010081508
137	0x3d00a4a1	0.031407002
138	0x3d6b956c	0.057515547
139	0x3d098ace	0.03357964
140	0x3d69e19d	0.057099927
141	0xbca25d2f	-0.019819824
142	0x3d3161ce	0.043306164
143	0x3d3de141	0.046357397
144	0xbd926d58	-0.07149762
145	0xbd3f4010	-0.046691954
146	0x3c17c4c9	0.009263226
147	0x3d00e2be	0.03146624
148	0xbd0cae7c	-0.03434609
149	0x3c096d1c	0.00838783
150	0xbb062f18	-0.0020474847
151	0x3c271819	0.010198616
152	0xbd399eab	-0.045317333
153	0x3d2a02a4	0.041506425
154	0x3d2043d9	0.039127205
155	0xbd46fd0e	-0.048581176
156	0xbadda862	-0.0016911144
157	0x3abab330	0.0014244076
158	0x3c995fd5	0.018722454
159	0x3d5d30b7	0.054001536
160	0x3c06a042	0.008216919
161	0xbc1d2725	-0.009591852
162	0x3d5de783	0.054175865
163	0xbce86966	-0.02837057
164	0xbcacc371	-0.021089287
165	0x3bb84471	0.005623393
166	0xbd51c508	-0.051213294
167	0x3a6bc722	0.00089942117
168	0xbd5f92ca	-0.05458335
169	0x3c3f8a18	0.011690639
170	0x3b1c5c66	0.0023858785
171	0x3ba76f67	0.0051097157
172	0xbd68aa56	-0.05680307
173	0xbd763ca1	-0.060116414
174	0x3ce1ffe4	0.027587838
175	0x3d49afb4	0.04923983
176	0xbd8b9abc	-0.068166226
177	0x3ced181e	0.028942164
178	0xbd522ba0	-0.051311135
179	0x395bea8d	0.00020972845
180	0x3d6c1eab	0.057646435
181	0x3d4d53d3	0.05012877
182	0xbd4a2e03	-0.049360286
183	0x3d0a8381	0.03381682
184	0x3cba6d32	0.022757147
185	0x3ba1163c	0.0049159806
186	0x3d709054	0.058731392
187	0xbcf19ef6	-0.029494744
188	0xbc8ee160	-0.017441452
189	0xbd00f407	-0.031482723
190	0x3be7a471	0.0070691635
191	0x3c34027a	0.010986919
192	0xbbc0e2c9	-0.00588641
193	0xbd004ac7	-0.031321313
194	0xbd069629	-0.032858048
195	0x3c941f31	0.01808128
196	0xbd71d07c	-0.059036717
197	0xbc1250bf	-0.008930384
198	0xbb72be0a	-0.0037039542
199	0xbd041b1a	-0.03225241
200	0x3c4b08e1	0.012392254
201	0x3c15bf5b	0.009139861
202	0x3d2a0dbb	0.041517
203	0xbc1db5b0	-0.009625837
204	0xbd30ee15	-0.043195803
205	0x3d3f566f	0.04671329
206	0x3bdb1c14	0.006686697
207	0xbcc95cf5	-0.024580458
208	0xbd5c0067	-0.05371132
209	0x3ca49a65	0.020093152
210	0xbd85debf	-0.06536626
211	0x3c567b83	0.013090971
212	0x3cf13275	0.029443005
213	0xbd637610	-0.055532515
214	0xbd36d5de	-0.044637553
215	0xbd5704fe	-0.052494995
216	0x3d303873	0.043022584
217	0x3d750a49	0.05982426
218	0x3978d459	0.00023730229
219	0x3d68239b	0.05667458
220	0xbcc5291c	-0.024067454
221	0xbd7c4568	-0.06158963
222	0x3ca4d08d	0.020118976
223	0x3c897efc	0.016784184
224	0x3d54f380	0.051990032
225	0x3ba12a61	0.004918382
226	0x3d3b0ac0	0.04566455
227	0x3d11edd8	0.035627216
228	0x3d352005	0.04421999
229	0xbd810114	-0.06299034
230	0x3d4f94be	0.05067896
231	0xbd7a494e	-0.061105065
232	0x3d3e821a	0.046510793
233	0x3b138a99	0.002251303
234	0xbd79e871	-0.06101269
235	0x3c656071	0.014000044
236	0xbc803794	-0.015651502
237	0xbd692c90	-0.056927264
238	0xbcd45770	-0.0259206
239	0x3a17fede	0.0005798171
240	0x3d38bd87	0.045102622
241	0xbc84f7c7	-0.01623143
242	0x3d127698	0.03575763
243	0x3bb4f317	0.0055221426
244	0xbbe5359b	-0.0069949157
245	0x3c62660f	0.013818278
246	0xbd333d30	-0.043759525
247	0xbd6bec16	-0.057598196
248	0xbcd25632	-0.025675867
249	0xbd68d522	-0.056843884
250	0xbd0482b6	-0.03235122
251	0x3a2f97c8	0.00066983374
252	0xbd428c82	-0.04749728
253	0xbcd4fc23	-0.025999134
254	0xbc530658	-0.01287993
255	0xbc36fdec	-0.011168938

dense.bias f4 [8]
0	0xbc0d3451	-0.00861843
1	0x3c2bcc4f	0.010485723
2	0x3c0b702e	0.008510632
3	0xbd7ab3a5	-0.06120648
4	0x3e72b78a	0.23702827
5	0x3e01d973	0.12680607
6	0x3f3cc1e1	0.73733336
7	0x3eac81f9	0.3369291
