results/2026_01_03_23_24_59/EncDec-AD/68475eda2a5c3cb0de12f7a3dee4bd2b/skab/other_16/1/model.pkl (torch, 69607 bytes, 12 tensors)

encoder.lstms.weight_ih_l0 f4 [160, 8]
0	0x3e1abc71	0.15110947
1	0x3e253b49	0.16135897
2	0xbca9c924	-0.020725794
3	0x3e2f785b	0.17135756
4	0xbb928054	-0.0044708643
5	0x3d7e5993	0.062097143
6	0xbc8b0b72	-0.016973231
7	0x3dfc3743	0.12315228
8	0x3e0ebaba	0.13938418
9	0xbded8fba	-0.11599679
10	0x3e0cbaf8	0.13743198
11	0x3cf26bf0	0.029592484
12	0x3def3d32	0.11681594
13	0x3caf6b45	0.021413455
14	0x3d9c240d	0.07624064
15	0xbcb6e15d	-0.022324258
16	0x3dd9c7b8	0.106337965
17	0x3be98ba8	0.007127244
18	0xbdb81dad	-0.08990035
19	0x3cd659af	0.026165811
20	0xbdb582ca	-0.08862837
21	0xbd0a4b57	-0.033763256
22	0xbda393fd	-0.07987211
23	0x3db73cc0	0.08947134
24	0xbdf56c0b	-0.11983498
25	0xbd8d740e	-0.06906901
26	0xbd446f19	-0.047957513
27	0xbdb63bd3	-0.08898129
28	0x3bda0d02	0.0066543827
29	0xbe276b8a	-0.16349617
30	0x3e0984ff	0.1342964
31	0xbe11e591	-0.14247729
32	0x3e10e698	0.14150465
33	0x3d3b7b96	0.045772158
34	0xbce88956	-0.0283858
35	0x3deded3a	0.11617513
36	0x3d34f075	0.04417463
37	0x3e16cc8a	0.14726463
38	0x3d167148	0.036729127
39	0xbcf8d6a5	-0.030375788
40	0x3d2e0241	0.04248262
41	0xbd2fa00a	-0.042877235
42	0x3d8847eb	0.06654342
43	0x3e108e3c	0.14116758
44	0x3dbb2f86	0.09139924
45	0xbd8d9062	-0.069123045
46	0x3dbaeda1	0.09127355
47	0x3ce7c1f1	0.02829072
48	0x3db29028	0.08718902
49	0xbdb863bd	-0.090033986
50	0xbe19b6eb	-0.15011184
51	0xbd666310	-0.056246817
52	0xbdeb45fe	-0.11487959
53	0x3e0bce41	0.13652898
54	0x3d54bfcb	0.05194072
55	0x3d93b475	0.07212154
56	0x3d90f179	0.07077307
57	0x3c93a682	0.018023733
58	0x3e13c348	0.14429963
59	0xbdbe9095	-0.093049206
60	0x3cfbfaf7	0.030759318
61	0xbdb26e8a	-0.0871249
62	0x3d8e59ce	0.06950723
63	0xbd09f047	-0.033676412
64	0x3d46721c	0.048448667
65	0xbd06eddb	-0.03294168
66	0x3e064923	0.13113837
67	0xbdbfed56	-0.0937144
68	0xbdc11fbb	-0.0942988
69	0xbdc122b7	-0.094304495
70	0x3e11a0a6	0.14221439
71	0x3d57d32d	0.052691627
72	0x3e1bcbf3	0.15214519
73	0xbe059e8d	-0.13048764
74	0xbe20981e	-0.15683028
75	0xbdfd57c6	-0.12370257
76	0xbdd9d43b	-0.10636183
77	0x3d8328a7	0.06404238
78	0x3d67e6fb	0.056616765
79	0x3e068889	0.13138022
80	0xbd911304	-0.07083705
81	0xbdc585ea	-0.09644683
82	0x3dd55bbe	0.10417889
83	0xbd5fa910	-0.05460459
84	0x3de122cf	0.10992967
85	0xbcbffa24	-0.023434706
86	0x3dd57fe9	0.104247876
87	0xbdded86a	-0.108811215
88	0xbe02af1a	-0.12762108
89	0x3985d1d0	0.0002552406
90	0xbc408053	-0.011749345
91	0xbdc4e1c7	-0.09613376
92	0x3d671726	0.05641856
93	0x3d8b3b71	0.06798447
94	0xbe1abdb7	-0.15111433
95	0xbdf9d3a0	-0.121985674
96	0x3e143cbb	0.14476292
97	0xbd5a9cf3	-0.053372335
98	0xbd665911	-0.056237284
99	0xbe1cab2b	-0.1529967
100	0xbdc798b8	-0.09745926
101	0x3d18c179	0.037293885
102	0xbd19c476	-0.037540875
103	0xbdfe80b6	-0.124268934
104	0x3b730fd2	0.0037088287
105	0xbddd318d	-0.10800467
106	0xbe095cdc	-0.1341433
107	0xbdb25066	-0.08706741
108	0xbe0db452	-0.13838318
109	0xbdce2fcf	-0.100677125
110	0x3e21d865	0.15805204
111	0x3cf4a4d4	0.029863752
112	0x3df33f3e	0.11877297
113	0xbd9da4f0	-0.07697475
114	0xbcf985f7	-0.030459387
115	0x3c5a0b42	0.013308348
116	0x3df5752a	0.11985238
117	0xbd5deee3	-0.0541829
118	0x3d2f8a6b	0.042856615
119	0x3ba99bf4	0.0051760618
120	0x39e5ba63	0.00043817153
121	0xbd70fca3	-0.058834683
122	0xbc33a44d	-0.010964465
123	0xbddb6d9d	-0.107142664
124	0xbdde4561	-0.10853077
125	0xbdbcea62	-0.092243925
126	0xbd5daf01	-0.054121975
127	0xbdff9709	-0.124799795
128	0x3daf397f	0.085558884
129	0xbda178ad	-0.07884345
130	0x3da2a3c6	0.079413936
131	0x3c733116	0.014843246
132	0xbe4494c7	-0.19197379
133	0x3d587076	0.052841626
134	0xbdce9491	-0.100869305
135	0xbdf51aab	-0.11967977
136	0xbe064800	-0.13113403
137	0xbe211f36	-0.15734562
138	0x3d41e0ff	0.047333714
139	0xbd176133	-0.03695793
140	0x3d973cfc	0.07384679
141	0xbdf465e3	-0.11933496
142	0x3e03312e	0.1281173
143	0xbdd38d2f	-0.10329663
144	0x3a808297	0.0009804544
145	0x3d809762	0.06278874
146	0x3df12f02	0.11776544
147	0x3e195a70	0.14975905
148	0x3e372848	0.1788646
149	0xbdb6e301	-0.08930016
150	0x3d94a5a3	0.07258155
151	0xbd0a2dd3	-0.033735108
152	0x3b9ab65b	0.0047214455
153	0xbdc4bf64	-0.09606817
154	0x3e290f3c	0.16509718
155	0xbdc765a9	-0.09736187
156	0x3ddc28f0	0.10749996
157	0x3da0c883	0.078507446
158	0x3d975ece	0.073911294
159	0xbd80444b	-0.06263026
160	0x3e23f3e5	0.16011007
161	0x3d512a17	0.05106553
162	0x3d16032c	0.03662412
163	0xbdfd8752	-0.12379326
164	0x3da96389	0.08270938
165	0xbbefc672	-0.0073173577
166	0xbd65def8	-0.056120843
167	0x3e1bd976	0.15219674
168	0x3d924b49	0.07143266
169	0xbd4f92cb	-0.050677102
170	0xbd41d8dd	-0.047325958
171	0x3cc97fac	0.024597012
172	0x3e079e46	0.1324397
173	0x3b2c314a	0.0026274496
174	0xbd3bb340	-0.045825243
175	0xbc230749	-0.009950467
176	0xbdfa8998	-0.12233275
177	0x3d52dbb2	0.05147905
178	0x3de86457	0.11347263
179	0xbe1d70d7	-0.15375076
180	0x3ce0df80	0.027450323
181	0x3d952a68	0.07283479
182	0x3c9c3e05	0.019072542
183	0xbd8603e8	-0.06543714
184	0x3e04049e	0.12892386
185	0x3e052c8d	0.13005276
186	0x3de099a2	0.10966803
187	0x3c7a1e59	0.0152660245
188	0x3c2b1119	0.010441088
189	0x3d8d9c75	0.069146074
190	0x3cc7a351	0.024369868
191	0x3bab809d	0.0052338378
192	0x3dea4cbf	0.114404194
193	0x3e18e227	0.1493002
194	0xbac8f6a9	-0.00153323
195	0xbcb62751	-0.022235544
196	0x3cb0f30b	0.021600267
197	0x3bf4f1ee	0.0074751293
198	0x3d702f9f	0.058639165
199	0x3d83642e	0.06415592
200	0xbd7aebdd	-0.061260093
201	0x3cd32d4c	0.025778435
202	0x3e62576f	0.22103666
203	0x3e05dfc5	0.13073643
204	0x3dbd68e6	0.092485234
205	0x3bc3c862	0.005974815
206	0x3d4bcaa3	0.049753796
207	0xbd265319	-0.04060659
208	0xbd9e92bb	-0.0774283
209	0x3ce7a7b1	0.028278204
210	0x3d9c662f	0.076366775
211	0x3d548c6a	0.05189172
212	0xbe2936f3	-0.16524868
213	0xbdf843d8	-0.12122315
214	0xbd4d89ca	-0.050180234
215	0x3e0236b3	0.12716179
216	0xbade6f25	-0.001697038
217	0xbd858fd9	-0.065215774
218	0x3d27e295	0.04098757
219	0xbda1fdbf	-0.07909726
220	0xbe01cf5c	-0.12676758
221	0x3db9cdf8	0.090724885
222	0xbdc6a072	-0.09698571
223	0xbd67dd72	-0.05660767
224	0xbe2112ae	-0.15729782
225	0x3dd8b4c3	0.105813526
226	0x3df53096	0.11972158
227	0x3d6c0393	0.057620596
228	0xbde7a5aa	-0.11310895
229	0xbe20b7fe	-0.15695187
230	0xbe09f7b9	-0.13473405
231	0x3de99fe2	0.11407448
232	0x3ddb9ee4	0.10723665
233	0x3e26cb91	0.16288592
234	0x3de5d6b1	0.1122259
235	0x3d6afae2	0.057368167
236	0x3ce8ffee	0.02844235
237	0xbdb58e1c	-0.08864996
238	0xbde71b96	-0.112845585
239	0xbdef7d17	-0.11693781
240	0x3d5b3bbd	0.053523768
241	0xbdb58e40	-0.08865023
242	0xbd337244	-0.043810144
243	0xbdcb7b00	-0.0993557
244	0xbd46ad5c	-0.048505172
245	0xbe02d5a1	-0.12776805
246	0xbdfcfa1f	-0.12352394
247	0x3d0226d8	0.031775326
248	0xbd4072a3	-0.046984326
249	0x3dc7ec32	0.097618476
250	0xbd4f70ac	-0.05064456
251	0xbded89ad	-0.11598525
252	0xbccb5ffd	-0.024826044
253	0xbd9afc8a	-0.07567699
254	0xbd26eb92	-0.040752
255	0xbe15c2dc	-0.14625114

encoder.lstms.weight_hh_l0 f4 [160, 40]
0	0xbe1b157f	-0.15144919
1	0xbc194c8b	-0.009356628
2	0xbd4132f6	-0.04716774
3	0xbd6d171d	-0.05788337
4	0xbe0263f1	-0.12733437
5	0x3dd9ce16	0.10635011
6	0x3e039ddf	0.12853192
7	0xbe13b2db	-0.14423697
8	0x3ca6edd5	0.020377079
9	0x3d0a9618	0.033834547
10	0x3df5df98	0.12005538
11	0x3deb980b	0.11503609
12	0x3e14d941	0.14536001
13	0xbcb1af0e	-0.021689918
14	0x3de2cc14	0.11074081
15	0x3e03b25a	0.12861004
16	0xbe1023cf	-0.1407616
17	0xbd950c12	-0.07277693
18	0x3cfb6f0d	0.030692602
19	0x3d66028a	0.056154765
20	0xbd46a154	-0.0484937
21	0x3db240b7	0.087037496
22	0xbd23ddc0	-0.0400064
23	0x3e030835	0.127961
24	0xbdebcc41	-0.11513568
25	0x3d8751c4	0.066073924
26	0x3da598ed	0.08085809
27	0xbdcfbf49	-0.101439066
28	0x3d00ccae	0.031445198
29	0x3e83e470	0.2576022
30	0x3d4ff73d	0.050772894
31	0x3e16d4e1	0.14729644
32	0x3d5b1cad	0.053494144
33	0xbd8b259b	-0.06794282
34	0x3e1653c3	0.1468039
35	0xbc9bb1a9	-0.019005613
36	0xbdd95514	-0.106119305
37	0x3b9ea227	0.0048411074
38	0xbe1449e5	-0.14481314
39	0x3d41c74c	0.047309205
40	0xbddbb3ba	-0.107276395
41	0x3c852e2d	0.01625737
42	0x3c78316e	0.015148504
43	0x3cb34ac3	0.021886235
44	0xbe08896d	-0.13333674
45	0xbe19c73c	-0.15017408
46	0x3d94fe72	0.07275094
47	0x3e0ada28	0.13559783
48	0xbe0fac59	-0.14030589
49	0x3d6fe14c	0.05856447
50	0xbdee5e6c	-0.11639103
51	0x3c22677e	0.00991237
52	0x3e16a207	0.14710246
53	0x3df5a76a	0.11994822
54	0xbdecc173	-0.11560335
55	0x3dc84de2	0.0978048
56	0x3da922a3	0.082585596
57	0xb97e4e71	-0.0002425255
58	0x3e1cd85f	0.15316914
59	0xbd809cb7	-0.06279891
60	0xbd16b6fd	-0.036795605
61	0xbda3a96c	-0.07991299
62	0x3cba6294	0.022752084
63	0x3d2b7c29	0.041866455
64	0x3c4e6a22	0.012598546
65	0xbdb6310c	-0.08896074
66	0xbd91c58b	-0.071177565
67	0x3d5c4b63	0.053782832
68	0xbe0df73b	-0.13863842
69	0xbcc9b7d6	-0.024623793
70	0xbb6589c2	-0.0035024737
71	0xbd8332f5	-0.06406204
72	0x3d6baf96	0.0575405
73	0x3c26f845	0.010191028
74	0x3de35733	0.11100616
75	0xbc6611d1	-0.014042334
76	0xbdcc5f9e	-0.09979175
77	0x3de4cb2c	0.111715645
78	0x3cb4e1fc	0.022080414
79	0xbd397b38	-0.045283526
80	0xbda4f184	-0.08053878
81	0x3cad4765	0.021152208
82	0xbe0cbb61	-0.13743354
83	0x3cd25592	0.025675569
84	0x3d99dbf9	0.075126596
85	0xbe0e06bd	-0.13869758
86	0xbdefc899	-0.11708183
87	0xbdeca6d1	-0.11555255
88	0x3e15bda4	0.14623123
89	0x3e16800c	0.14697284
90	0x3cd33b32	0.025785062
91	0x3e129b51	0.14317061
92	0xbd5881bc	-0.0528581
93	0xbe2d4645	-0.16921337
94	0x3d623725	0.05522837
95	0x3d656fc0	0.056014776
96	0x3e1cde4f	0.15319179
97	0x3c8f818d	0.01751783
98	0x3ded7242	0.115940586
99	0x3de177cb	0.11009177
100	0x3dc9a370	0.09845626
101	0xbd86a770	-0.06574905
102	0x3d0e0967	0.034676936
103	0xbd0fd5f7	-0.035116162
104	0x3e214525	0.15749033
105	0x3cbc6f57	0.02300231
106	0xbe0bfbdb	-0.13670294
107	0x3d35726c	0.044298574
108	0xbd7309be	-0.059335463
109	0xbe888740	-0.26665688
110	0xbd6acad0	-0.057322323
111	0x3c858c88	0.016302362
112	0x3dfc18a8	0.1230939
113	0x3998e38a	0.0002916123
114	0xbd9c8f1f	-0.07644486
115	0xbc4506cb	-0.012025545
116	0xbdde0a0d	-0.10841761
117	0x3cff68e3	0.031177944
118	0xbda0912c	-0.07840189
119	0xbe16ec3d	-0.14738555
120	0xbd7c7a78	-0.061640233
121	0xbe1357c5	-0.1438895
122	0xbd97078c	-0.07374486
123	0x3c357419	0.011075043
124	0xbde22128	-0.1104148
125	0xbd86516e	-0.065585
126	0xbcceec24	-0.025259085
127	0xbc959ef2	-0.018264268
128	0xbdb9ee08	-0.09078604
129	0x3b86f20b	0.0041182092
130	0xbcd2117e	-0.025643107
131	0x3d5ac8a5	0.053414006
132	0x3bea0416	0.0071416004
133	0xbd9af8d8	-0.075669944
134	0xbd5ef85b	-0.05443607
135	0xbaeedcf6	-0.001822381
136	0xbdd8d1f3	-0.1058692
137	0x3d02d2c8	0.031939298
138	0xbc3826bf	-0.011239707
139	0x3d6d006f	0.05786174
140	0x3d26f738	0.04076311
141	0x3dec1952	0.11528267
142	0xbc34e42f	-0.011040731
143	0xbdc9292a	-0.098223045
144	0x3d890a5e	0.066914305
145	0xbde729e2	-0.112872854
146	0xbc638903	-0.013887647
147	0xbd3741b4	-0.044740394
148	0xbd543b78	-0.051814526
149	0xbd6f9d45	-0.058499593
150	0x3e14c7f9	0.14529409
151	0x3db95f13	0.09051337
152	0x3d339275	0.043840844
153	0x3e17c5ee	0.14821598
154	0xbe0a6b8d	-0.1351759
155	0x3d02ff3b	0.031981688
156	0x3dc06539	0.09394307
157	0x3dd7d7e6	0.10539226
158	0xbe04947c	-0.12947267
159	0x3d74ac2b	0.059734505
160	0xbdbcd972	-0.09221162
161	0x3c596b45	0.013270204
162	0xbd0c423a	-0.034242846
163	0xbde68f40	-0.112577915
164	0xbe1a7276	-0.15082726
165	0xbdd509e8	-0.1040228
166	0x3dba2b5a	0.090903
167	0x3d942020	0.0723269
168	0xbe20b604	-0.15694433
169	0xbda1c00a	-0.07897957
170	0xbc8a368b	-0.016871711
171	0xbe0bfb9f	-0.13670205
172	0x3db674cf	0.08908998
173	0x3e268e7e	0.16265294
174	0x3ce51563	0.0279643
175	0xbdf099db	-0.117480956
176	0x3d1704db	0.036869865
177	0x3d6a380a	0.05718235
178	0x3e0034ca	0.12520137
179	0xbdd42072	-0.10357751
180	0xbdfa4b8f	-0.12221443
181	0x3d97fe8d	0.074215986
182	0xbc898eae	-0.016791668
183	0xbd3cb336	-0.046069346
184	0xbdae45dd	-0.08509419
185	0xbda6f72f	-0.08152615
186	0x3de825ea	0.113353565
187	0xbcdf7bbb	-0.027280679
188	0x3de98a25	0.11403302
189	0x3e108715	0.1411403
190	0x3ca41460	0.020029247
191	0x3d09f521	0.03368104
192	0xbc287ab7	-0.010283164
193	0x3dc93a7a	0.09825607
194	0xbe250209	-0.16114058
195	0x3d80c6e2	0.06287934
196	0xbd1fffa1	-0.039062146
197	0x3d93dc37	0.07219737
198	0xbc8974b9	-0.01677929
199	0xbd2023eb	-0.039096754
200	0xbc8bd302	-0.01706839
201	0x3daedbe6	0.08538036
202	0xbde0e697	-0.109814815
203	0xbdccaf42	-0.09994365
204	0xbd11115b	-0.035416942
205	0xbd6ae9b5	-0.057351787
206	0x3d7e6a8c	0.06211333
207	0x3dd9eb52	0.10640587
208	0xbc8ab8b2	-0.016933773
209	0x3e1918b7	0.14950834
210	0xbd874c1c	-0.066063136
211	0xbdb5b68c	-0.08872709
212	0xbd90f897	-0.07078665
213	0xbddf19e3	-0.108936094
214	0xbde2f975	-0.110827364
215	0xbe10435a	-0.14088193
216	0xbe0f7f0a	-0.14013305
217	0x3d29081d	0.041267503
218	0x3dc57b32	0.09642638
219	0x3e1801e9	0.14844479
220	0x3e09e9d0	0.13468099
221	0xbc1532dc	-0.009106364
222	0x3cfb57b1	0.030681463
223	0xbdc1bf0a	-0.09460266
224	0x3d7a530b	0.061114352
225	0xbe1b3ea0	-0.15160608
226	0x3d98bc5e	0.07457803
227	0x3ced928b	0.029000541
228	0x3d470555	0.04858907
229	0x3d6d215b	0.05789314
230	0xbd94aa81	-0.072590835
231	0x3e0aef50	0.13567853
232	0x3d9a8ae6	0.07546024
233	0x3dd4b6bd	0.10386417
234	0x3cab13c4	0.020883448
235	0x3dcb5a55	0.09929339
236	0x3dd9ede9	0.10641081
237	0x3d92c3e9	0.07166273
238	0x3df6ac80	0.120446205
239	0xbceaeee2	-0.028678361
240	0xbec6b72f	-0.38811633
241	0x3d2fd764	0.042930022
242	0x3d975d16	0.073908016
243	0x3e2467f5	0.16055281
244	0x3cf567bf	0.029956697
245	0xbd706169	-0.058686648
246	0xbd23d180	-0.039994717
247	0x3d1a15e0	0.037618518
248	0x3c8bb7f9	0.017055498
249	0xbd57db51	-0.05269939
250	0x3df065d1	0.1173817
251	0x3dd2a1c5	0.10284761
252	0xbdc923e9	-0.098213024
253	0xbc02a21f	-0.007973223
254	0xbc78aceb	-0.015177946
255	0xbdcaf23c	-0.09909484

encoder.lstms.bias_ih_l0 f4 [160]
0	0xbdd0a9a1	-0.10188604
1	0xbe17fd22	-0.14842656
2	0xbd74f325	-0.059802193
3	0x3e016463	0.1263595
4	0x3dcb86f7	0.09937852
5	0x3dd01dab	0.10161909
6	0xbcf8827a	-0.030335654
7	0x3e244d58	0.1604513
8	0xbd93a6a8	-0.072095215
9	0xbc3556b6	-0.011068037
10	0xbe074cfc	-0.13212961
11	0xbd21749b	-0.039417844
12	0x3d14269b	0.03616963
13	0xbe1b6612	-0.15175655
14	0x3e533cf5	0.20628722
15	0x3cf3b119	0.029747533
16	0x3dcdc06d	0.10046468
17	0xbd896c1b	-0.067100726
18	0x3d2fa548	0.042882234
19	0xbce59ba3	-0.028028315
20	0x3e19a2b6	0.15003476
21	0xbd4b428e	-0.04962402
22	0x3dad0e72	0.08450021
23	0xbd7bf3ec	-0.06151192
24	0x3e07c4d6	0.1325868
25	0xbd5bc2a3	-0.053652417
26	0xbdd53336	-0.10410158
27	0xbdc42850	-0.095780015
28	0xbcdc36ab	-0.026881536
29	0x3ce88994	0.028385915
30	0x3d216b04	0.0394087
31	0x3e113ab2	0.14182547
32	0x3d221f5d	0.03958069
33	0xbdb1a4b9	-0.086739965
34	0x3e0b964e	0.13631555
35	0xbca2dc49	-0.01988043
36	0xbda5610d	-0.080751516
37	0x3df3f21e	0.119114146
38	0xbce04e29	-0.02738102
39	0x3e1d0167	0.15332566
40	0x3d0d234c	0.03445749
41	0x3df78246	0.120853946
42	0x3d26c167	0.040711787
43	0xbdd1dc28	-0.102470696
44	0x3d5691c2	0.0523851
45	0xbd9ef52d	-0.07761607
46	0xbd28d225	-0.041216034
47	0xbd50a0a3	-0.050934445
48	0xbdb875a2	-0.09006812
49	0x3dc3432c	0.095342964
50	0x3e1c2b84	0.15250975
51	0xbe1f8fbd	-0.15582176
52	0x3db0434a	0.08606584
53	0xbe08cb98	-0.13358915
54	0xbdc0160a	-0.093792036
55	0x3d5f587d	0.05452775
56	0xbc3b6bf3	-0.011439311
57	0xbd93db8c	-0.072196096
58	0x3e3cc493	0.18434362
59	0x3db6bf22	0.089231744
60	0xbd947268	-0.07248384
61	0x3dc8b7c8	0.098006785
62	0x3c9cbab3	0.019131994
63	0x3ceb6b08	0.02873756
64	0xbda426e5	-0.08015231
65	0xbc3beeca	-0.011470506
66	0x3dc1f89b	0.09471246
67	0xbd9f9297	-0.07791632
68	0x3d0ca7cc	0.03433971
69	0xbe1f1d49	-0.15538515
70	0xbd750b21	-0.059825066
71	0xbd4bbe1d	-0.049741853
72	0xbe20da9a	-0.1570839
73	0x3ce165ca	0.027514357
74	0xbdfd86c9	-0.12379224
75	0x3dbb6974	0.09150973
76	0x3d3f6aa5	0.046732564
77	0x3b099561	0.0020993578
78	0xbdaca192	-0.084292546
79	0xbd5c667c	-0.053808674
80	0x3c2548ee	0.010088189
81	0x3e1ba890	0.1520102
82	0xbd9b17de	-0.07572912
83	0xbde5051f	-0.111826174
84	0xbd8fa385	-0.07013611
85	0xbde89b36	-0.11357729
86	0xbcaa84df	-0.020815311
87	0xbde6cf26	-0.11269979
88	0x3de0dd44	0.10979703
89	0x3de5d74b	0.112227045
90	0xbdddbb1f	-0.10826706
91	0x3e0ecb31	0.13944699
92	0x3d06446b	0.032780092
93	0xbdce04b9	-0.100594945
94	0x3d550639	0.052007888
95	0xbe12f1d8	-0.14350069
96	0xbda22f2d	-0.07919154
97	0xbde9bbd6	-0.1141278
98	0xbd848503	-0.064706825
99	0xbd0c2f7c	-0.034224972
100	0x3d4094ea	0.047017016
101	0x3cf72ad8	0.030171797
102	0xbe1e5f78	-0.15466106
103	0xbe1af960	-0.15134192
104	0xbcc4815b	-0.023987463
105	0x3e09b67b	0.13448517
106	0x3d6fea4f	0.058573063
107	0x3e108634	0.14113694
108	0xbd996d6f	-0.07491576
109	0x3d82d9eb	0.06389221
110	0xbe0cf48b	-0.1376516
111	0x3da8864b	0.08228739
112	0xbcac84b7	-0.021059377
113	0xbc447d3e	-0.011992751
114	0xbdaedb44	-0.08537915
115	0xbe0756a8	-0.1321665
116	0xbd6e71fb	-0.05821417
117	0xbc74c868	-0.014940359
118	0xbdabf6c5	-0.08396677
119	0x3d878ecc	0.06619033
120	0x3d3338c7	0.04375532
121	0x3c8b6124	0.017014094
122	0xbe16c803	-0.14724736
123	0x3d9b8d8c	0.07595357
124	0xbdd14458	-0.10218114
125	0xbdf4ae0a	-0.11947258
126	0xbdc34684	-0.09534934
127	0xbe175a00	-0.14780426
128	0xbe0a536e	-0.13508388
129	0x3e0a652e	0.1351516
130	0x3e155bbf	0.1458578
131	0xbde0ec16	-0.1098253
132	0x3d0c73b6	0.034290038
133	0xbda6c7d0	-0.0814358
134	0x3e17806e	0.14795086
135	0x3dc5b08c	0.09652814
136	0x3d8785d7	0.06617325
137	0xbd9fbd00	-0.07799721
138	0xbd9180bf	-0.071046345
139	0xbc1bb203	-0.0095028905
140	0xbe10c17f	-0.14136313
141	0xbdbc8b90	-0.09206307
142	0x3d9c8cb0	0.076440215
143	0xbdae992f	-0.08525311
144	0x3d57c2f6	0.052676164
145	0xbb6ccd26	-0.003613302
146	0xbae1f612	-0.0017239472
147	0xbd3c3b0e	-0.045954756
148	0xbde1fae3	-0.11034181
149	0xbde2edd1	-0.11080516
150	0xbddc5aca	-0.10759504
151	0x3df48e4c	0.119412035
152	0xbca8b164	-0.020592399
153	0x3e1da88e	0.1539633
154	0x3c2f058e	0.010682477
155	0xbc873986	-0.016506921
156	0x3df73675	0.12070934
157	0xbe23429e	-0.15943381
158	0xbdec3d72	-0.11535157
159	0x3e011e6b	0.1260926

encoder.lstms.bias_hh_l0 f4 [160]
0	0xbc35aaea	-0.011088112
1	0x3e001881	0.12509347
2	0xbcf75cc9	-0.03019561
3	0x3de6bb90	0.112662435
4	0x3cde954a	0.027170796
5	0x3c86838b	0.016420146
6	0xbe0218fd	-0.12704845
7	0xbd0ab110	-0.033860266
8	0x3c01e382	0.007927777
9	0x3d93f445	0.07224325
10	0x3d332b62	0.043742545
11	0xbda7592c	-0.08171305
12	0x3a818fb6	0.0009884748
13	0x3e0b2e63	0.13591914
14	0x3e37218c	0.17883891
15	0x3d5cfc24	0.053951398
16	0xbe283743	-0.1642733
17	0xbd55ce6d	-0.052198816
18	0x3e0bbaf7	0.1364554
19	0x3e290201	0.1650467
20	0xbd6f3449	-0.058399472
21	0x3dd8faec	0.105947345
22	0xbd32478c	-0.043525264
23	0x3e196a5d	0.1498198
24	0xbc23a696	-0.009988448
25	0xbd03903a	-0.032119967
26	0xbe3a5ff5	-0.18200667
27	0xbcf892c4	-0.03034342
28	0x3d3eca2d	0.04657953
29	0xbd80bd24	-0.06286076
30	0x3de6d5e4	0.11271265
31	0x3d99aa58	0.075031936
32	0x3d2b2551	0.041783635
33	0x3d7f6113	0.062348437
34	0xbe28b58c	-0.16475505
35	0xbcd19ce2	-0.025587503
36	0x3db764b9	0.08954758
37	0x3e0d9a0c	0.13828295
38	0xbe132363	-0.14368968
39	0xbdb29327	-0.08719473
40	0x3e073c3c	0.13206571
41	0xbdeae8a0	-0.11470151
42	0x3df56ba1	0.11983419
43	0xbcf2dda4	-0.029646702
44	0x3cfb8dcf	0.030707268
45	0x3dba5e94	0.091000706
46	0x3d32f263	0.04368819
47	0xbdcf9486	-0.101357505
48	0x3db197fa	0.08671565
49	0xbdd01340	-0.10159922
50	0xbd206c38	-0.039165705
51	0xbce39623	-0.027781552
52	0xbd018c72	-0.03162808
53	0x3dd9cdea	0.10634978
54	0xbccfc83d	-0.025364036
55	0x3e07dc3a	0.13267604
56	0x3d8694ae	0.06571327
57	0x3d9c0803	0.076187156
58	0x3e1f1b3e	0.15537736
59	0xbd01a40c	-0.031650588
60	0xbde059b2	-0.10954608
61	0x3d007f99	0.031371687
62	0x3dafe53a	0.08588643
63	0x3e0911ec	0.13385743
64	0x3d1fac96	0.03898295
65	0x3e1ad9b6	0.15122113
66	0x3d73406e	0.059387617
67	0x3d8a8b32	0.06764831
68	0xbdebc536	-0.115122244
69	0x3d458d9d	0.048230756
70	0xbd726c5a	-0.059185363
71	0xbe02cb75	-0.12772925
72	0xbdf77ddd	-0.120845534
73	0xbdfee260	-0.12445521
74	0xbcc34dc9	-0.023840802
75	0xbd879fbe	-0.06622265
76	0x3e237339	0.15961923
77	0x3d85e1fc	0.06537244
78	0xbe069b9b	-0.13145296
79	0x3bda0c5e	0.0066543063
80	0x3ddd4954	0.10805002
81	0xbbd0e089	-0.006374423
82	0x3cd2416c	0.025665961
83	0x3d1f6bee	0.03892129
84	0xbd55b11c	-0.052170858
85	0xbdd1a6de	-0.102369055
86	0xbd72b7bb	-0.05925725
87	0xbd28f922	-0.041253217
88	0x3df4e2ac	0.11957297
89	0xbe039c87	-0.12852679
90	0x3c5ec558	0.013596855
91	0xbd77918a	-0.06044153
92	0xbc89cf15	-0.016822377
93	0xbc6623ec	-0.01404665
94	0xbd7d4eb3	-0.06184263
95	0x3d1570c8	0.03648451
96	0x3d2d1e5b	0.042265277
97	0xbdb9f458	-0.09079808
98	0x3df6886b	0.120377384
99	0x3e120e27	0.14263211
100	0xbd5f2312	-0.054476805
101	0x3d040125	0.032227654
102	0xbd704390	-0.058658183
103	0x3dddf87b	0.108384095
104	0xbc48dda3	-0.012259874
105	0xbe10d601	-0.14144136
106	0x3d16b44d	0.036793042
107	0x3e062bc8	0.13102639
108	0x3a21e613	0.00061759463
109	0xbca95fbc	-0.020675533
110	0xbb8e2403	-0.004337789
111	0x3db75c32	0.08953132
112	0x3df29243	0.118443035
113	0xbd2213cf	-0.039569672
114	0x3dac7fc1	0.084228046
115	0x3dc0af48	0.09408432
116	0x3e10a76a	0.14126363
117	0x3de7fcca	0.113275126
118	0xbe05b980	-0.13059044
119	0xbe05a7cf	-0.13052295
120	0xbd75d8c7	-0.060021188
121	0x3dce6f7a	0.10079856
122	0xbda47015	-0.080291905
123	0x3df339db	0.118762694
124	0xbd46553a	-0.048421122
125	0xbd856dd3	-0.06515088
126	0x3db259da	0.08708544
127	0xbd0d7d90	-0.034543574
128	0xbdcc3de9	-0.09972746
129	0xbbe44339	-0.0069660214
130	0xbdac4a0f	-0.08412563
131	0xbe1be609	-0.1522447
132	0xbce2f0c6	-0.0277027
133	0xbc11bed2	-0.008895593
134	0xbdb89464	-0.09012678
135	0x3e0f8020	0.1401372
136	0xbd03255f	-0.03201806
137	0x3c302403	0.010750773
138	0x3e0732b1	0.13202931
139	0x3d29403c	0.041321024
140	0xbd1859b2	-0.037194915
141	0x3d1650bb	0.036698084
142	0xbddd47c8	-0.10804707
143	0x3e4baeeb	0.19890945
144	0x3d5648ba	0.05231545
145	0x3d63c4b9	0.05560753
146	0xbdd7b24d	-0.10532055
147	0x3df80bd2	0.121116295
148	0xbe1f0bc9	-0.1553184
149	0xbc92cc76	-0.01791976
150	0xbdcfa1f3	-0.10138311
151	0xbda389c0	-0.07985258
152	0x3ccbba85	0.024869213
153	0xbe20911d	-0.15680356
154	0xbe1c1a08	-0.15244305
155	0x3d1cac5e	0.03825032
156	0x3d9fbe9d	0.078000285
157	0xbc081d6e	-0.008307798
158	0xbd9e8dc1	-0.07741881
159	0xbc10ca64	-0.008837316

decoder.lstms.weight_ih_l0 f4 [160, 8]
0	0xbe5a2b97	-0.2130569
1	0x3e3c7305	0.18403251
2	0x3dca1194	0.09866634
3	0x3e9f7af4	0.31148493
4	0x3e8ac87c	0.27106082
5	0x3deecfc4	0.11660722
6	0x3d07e017	0.033172693
7	0xbe553220	-0.20819902
8	0xbe97bf12	-0.29637963
9	0x3e98cad7	0.29842255
10	0x3e72f91c	0.2372784
11	0x3e85bfb7	0.2612283
12	0x3e0689e5	0.1313854
13	0x3e2e14fd	0.17000194
14	0x3d896d00	0.06710243
15	0xbe22c1d2	-0.15894249
16	0xbec91aac	-0.39278162
17	0x3eafcfbb	0.34338173
18	0x3d237ee2	0.039915927
19	0x3ed4bf2b	0.415521
20	0x3e1041c0	0.14087582
21	0x3dbe090b	0.092790686
22	0xbd05da7c	-0.032679066
23	0xbbf47155	-0.0074597993
24	0x3d10230b	0.03518967
25	0x3d250b20	0.040293813
26	0x3d5a7222	0.0533315
27	0xbdb48494	-0.0881435
28	0xbd23a5c9	-0.039953027
29	0x3e195b9a	0.1497635
30	0x3d77bcfa	0.060482956
31	0xbcc04e0b	-0.023474714
32	0x3db2f5bb	0.087382756
33	0xbd7680c5	-0.060181398
34	0xbd838a20	-0.0642283
35	0x3e0ea9bc	0.13931936
36	0xbde41428	-0.11136657
37	0xbd70cefc	-0.058791146
38	0x3e08ac00	0.13346863
39	0xbb198465	-0.002342486
40	0xbe19d55e	-0.150228
41	0x3e42f207	0.19037639
42	0x3db559d9	0.08855028
43	0xbd9bf90f	-0.076158635
44	0xbd3bb9f7	-0.045831647
45	0x3d7c5815	0.06160744
46	0x3dac1461	0.084023245
47	0xbd533a74	-0.051569417
48	0xbed56eb6	-0.41686028
49	0x3eece265	0.46266475
50	0x3d0ff689	0.035147224
51	0x3e82cc21	0.25546363
52	0x3e9699d4	0.29414237
53	0x3e9952e2	0.29946047
54	0x3b750abb	0.003739043
55	0xbe4d4f61	-0.20049812
56	0x3e210722	0.15725377
57	0x3e3c1531	0.18367459
58	0xbd3821c9	-0.044954095
59	0x3e3a8f99	0.1821884
60	0x3e0a509a	0.1350731
61	0x3e2a69f9	0.16641988
62	0xbd2ca189	-0.04214624
63	0xbc51e22a	-0.012810269
64	0x3cf6c865	0.030124852
65	0x3db79e79	0.08965773
66	0xbd0d275b	-0.03446136
67	0x3e2179c1	0.15769102
68	0x3e536209	0.20642866
69	0xbcf3872d	-0.029727543
70	0xbc8af15f	-0.016960798
71	0xbcc7c5ed	-0.02438637
72	0xbdf06e7e	-0.11739825
73	0xbd4a8878	-0.049446553
74	0xbdd8f4c5	-0.10593561
75	0xbdf36e80	-0.118863106
76	0x3dcc1a1b	0.09965917
77	0x3e34b6cb	0.17647855
78	0x3df277e3	0.11839273
79	0x3da2a795	0.0794212
80	0xbe6a5740	-0.22884846
81	0x3e4468e6	0.1918064
82	0xbdb55f80	-0.08856106
83	0x3e7a85b9	0.24465074
84	0x3da30cf1	0.07961453
85	0x3d4569a4	0.04819645
86	0x3cdfe50d	0.0273309
87	0xbdb3a0e7	-0.08770924
88	0xbf0310c9	-0.5119749
89	0x3ebb7a12	0.3661657
90	0x3dafd57d	0.085856415
91	0x3ebdba63	0.37056264
92	0x3d94bb37	0.07262271
93	0xbc9e919b	-0.01935654
94	0x3d04fdaf	0.032468494
95	0xbd46e5f2	-0.048559137
96	0xbe3370bb	-0.17523472
97	0x3e31efe1	0.17376663
98	0x3ec10e1f	0.37706086
99	0x3dcd2c43	0.10018208
100	0x3e691a2d	0.22763892
101	0x3ee467dc	0.44610488
102	0xbd1b9891	-0.037987296
103	0xbd9531da	-0.07284899
104	0xbe61ff20	-0.22069979
105	0x3e6468c3	0.22305588
106	0x3e8f0982	0.2793694
107	0x3ec12726	0.3772518
108	0x3eb3eeab	0.35143027
109	0x3e905cc6	0.2819578
110	0xbc7527ad	-0.014963073
111	0xbe540370	-0.20704436
112	0xbe5058c7	-0.20346366
113	0x3ec1931d	0.3780755
114	0x3e4566e1	0.19277526
115	0x3e5fa47e	0.21840093
116	0x3ec628bd	0.38702956
117	0x3d767f4b	0.06017999
118	0x3eca7a84	0.39546597
119	0x3ddd17ac	0.10795531
120	0xbe917b3b	-0.2841433
121	0x3eb1be6d	0.34715596
122	0x3e990fcc	0.29894865
123	0x3eab43c1	0.3345013
124	0x3ec62429	0.38699463
125	0x3e82304f	0.25427482
126	0x3e99ecbc	0.30063426
127	0xbe1959fa	-0.1497573
128	0xbe76ff29	-0.24120773
129	0x3ef2bb49	0.47408512
130	0xbcef9f09	-0.029250639
131	0x3e97ce27	0.2964947
132	0xbd008887	-0.031380203
133	0x3e4443ff	0.19166563
134	0x3eab0688	0.3340342
135	0x3dc5f4a7	0.09665804
136	0xbd8fbc92	-0.07018389
137	0x3dbf04b8	0.09327072
138	0x3d13cb86	0.036082767
139	0x3d76abf3	0.060222577
140	0xbe508697	-0.20363842
141	0x3df5ab27	0.11995535
142	0xbe198a1e	-0.14994094
143	0x3c332292	0.010933535
144	0xbe3a6136	-0.18201146
145	0x3dbe4f2d	0.09292445
146	0xbc57a183	-0.013161066
147	0xbdc60694	-0.096692234
148	0x3db9e7ef	0.09077441
149	0xbc8b0e1c	-0.016974501
150	0xbd246cb4	-0.04014273
151	0xbcfe420b	-0.031037351
152	0x3a3dc4c8	0.00072391005
153	0x3e63c65b	0.22243635
154	0x3dde90f7	0.108674936
155	0x3e30d1c2	0.17267516
156	0x3e3c8dd6	0.18413481
157	0x3e336096	0.17517313
158	0x3e49e3a9	0.19715752
159	0x3e1a17fc	0.15048212
160	0xbdd92c72	-0.106041804
161	0x3d831eb7	0.06402343
162	0x3de8cf2a	0.113676384
163	0x3e8365ed	0.256637
164	0xbdbfe873	-0.09370508
165	0xbd251037	-0.040298667
166	0xbd27caeb	-0.040965002
167	0x3e3f6029	0.18689026
168	0xbe38ee8d	-0.1805975
169	0x3e8bbd7b	0.27293
170	0x3ea3e15f	0.32007882
171	0x3e621b30	0.22080684
172	0x3ea9e0fd	0.33179465
173	0x3e93832d	0.28811017
174	0x3e9d6bb0	0.30746222
175	0x3e351bfb	0.17686455
176	0xbe6decba	-0.23234835
177	0x3e7fd1ae	0.2498233
178	0x3e981cbb	0.2970942
179	0x3d85b0c7	0.06527858
180	0x3ef84b30	0.48494864
181	0x3e102b4a	0.14079013
182	0x3e8c2040	0.27368355
183	0x3e21b328	0.15790999
184	0xbdfc936b	-0.12332805
185	0x3d26b999	0.040704343
186	0x3e73a3f2	0.23793009
187	0x3d5a91eb	0.053361814
188	0x3e5cf0f8	0.21576297
189	0xbcca65e6	-0.024706792
190	0xbd9cfcca	-0.07665403
191	0xbd9f5107	-0.077791266
192	0xbd1bbb84	-0.038020626
193	0xbb8458f0	-0.0040389225
194	0x3e1da3bd	0.15394492
195	0x3d3ed052	0.04658539
196	0xbd9a3e1d	-0.075313784
197	0x3d30fde5	0.043210883
198	0xbdd41815	-0.10356156
199	0x3ce4b18f	0.027916698
200	0xbe4e6fb2	-0.20159796
201	0x3e0c970c	0.13729495
202	0x3e45eb9f	0.19328164
203	0x3e1b009f	0.15136956
204	0x3e881bc9	0.26583698
205	0x3e5e4c8c	0.21708888
206	0x3eda1c0c	0.42599523
207	0x3d369ec4	0.044585004
208	0xbddb8b7b	-0.10719963
209	0x3e0bf1c4	0.13666445
210	0x3edaf457	0.42764542
211	0x3daf22f4	0.08551589
212	0x3e4362c9	0.19080652
213	0x3e9c6a98	0.30550075
214	0x3ee99022	0.45617777
215	0xbc57ceda	-0.013171876
216	0xbdd07f01	-0.10180474
217	0x3e74feb2	0.23925284
218	0x3e8c302b	0.273805
219	0x3e689f1a	0.22716942
220	0x3e5003c3	0.20313935
221	0x3e5400c5	0.20703419
222	0xbda9582e	-0.08268772
223	0x3d017792	0.03160817
224	0xbe2d99ad	-0.16953154
225	0x3eb927fc	0.36163318
226	0x3cdbb53f	0.026819823
227	0x3ec868b1	0.39142373
228	0x3ec40c2c	0.38290536
229	0x3e977e7e	0.29588693
230	0x3df4c3f1	0.11951435
231	0x3d69098f	0.05689388
232	0xbe27b87b	-0.16378967
233	0x3ed07cc7	0.40720198
234	0xbd1658a1	-0.036705617
235	0x3e8f6cfb	0.28012833
236	0x3e518df3	0.20464306
237	0x3dc7314d	0.097262
238	0x3ed73133	0.42029724
239	0xbc38df3e	-0.011283694
240	0xbeba3369	-0.36367348
241	0x3d9e5c1e	0.07732414
242	0x3e4cc95a	0.19998685
243	0x3eb264a6	0.34842414
244	0x3e85cabc	0.26131237
245	0x3e8086db	0.25102887
246	0x3cc63051	0.024192961
247	0xbe6066c5	-0.21914203
248	0xbe887dc1	-0.26658443
249	0x3efb436f	0.49074885
250	0xbd4a5f04	-0.04940702
251	0x3eae203b	0.34008965
252	0x3e3448bf	0.17605875
253	0xbcf832c0	-0.030297637
254	0xbdb482e3	-0.08814027
255	0x3de315ae	0.110881194

decoder.lstms.weight_hh_l0 f4 [160, 40]
0	0xbec3bf57	-0.38231918
1	0x3d0e2b5b	0.034709316
2	0xbe2a78c1	-0.16647626
3	0x3e2f310c	0.17108554
4	0x3cb20976	0.021733027
5	0xbe028fff	-0.12750243
6	0x3dec6d71	0.11544312
7	0xbe054a31	-0.13016583
8	0xbe3826da	-0.1798357
9	0xbea44654	-0.32084906
10	0xbcf19231	-0.029488655
11	0x3e1a1e65	0.15050657
12	0xbe1b324e	-0.15155908
13	0x3e495adf	0.19663571
14	0xbdc93e0a	-0.09826286
15	0x3ea5da60	0.3239317
16	0xbc806734	-0.015674211
17	0x3dbbf8ff	0.091783516
18	0xbd9b0f2e	-0.07571255
19	0xbe043f12	-0.12914684
20	0x3e7e5065	0.24835356
21	0x3d169eb7	0.036772456
22	0xbe06c519	-0.13161124
23	0x3e6b4d66	0.22978744
24	0xbdd7e5fa	-0.105419114
25	0x3ca34a4d	0.01993289
26	0x3b9e2f67	0.004827428
27	0xbbebddea	-0.007198085
28	0xbdcfb3e7	-0.101417355
29	0x3e87457b	0.26420197
30	0xbe9617f6	-0.29315156
31	0x3cf305eb	0.029665908
32	0xbe8b10f6	-0.27161378
33	0xbe03ed7b	-0.1288356
34	0x3d9c1a7f	0.07622241
35	0x3e301de2	0.171989
36	0xbe4716c8	-0.19442284
37	0x3cc2f5ed	0.023798907
38	0x3c2bfcba	0.010497266
39	0x3e967e12	0.2939306
40	0xbd9c855d	-0.076426245
41	0x3e471bd2	0.19444206
42	0x3d11ab93	0.035564017
43	0x3cee4e6b	0.029090127
44	0x3e83506e	0.256473
45	0xbd4edcaf	-0.05050343
46	0xbd9f398f	-0.0777465
47	0x3ca25f09	0.019820707
48	0xbe4d3fd9	-0.20043887
49	0xbdbc7631	-0.09202231
50	0xbdd592f8	-0.10428423
51	0xbe00e3d1	-0.12586905
52	0x3e841a84	0.2580148
53	0x3e8baf60	0.27282238
54	0x3e2b54ef	0.16731618
55	0xbe82460a	-0.2544406
56	0x3d2061d7	0.039155807
57	0x3e2b06b3	0.16701774
58	0x3d3f9cd2	0.046780415
59	0xbe8d0389	-0.2754176
60	0x3e926a54	0.28596747
61	0x3e3c44d0	0.18385625
62	0xbec5dcbb	-0.38644966
63	0x3ecd932d	0.4015135
64	0xbdb94a0e	-0.09047328
65	0x3e13e429	0.14442505
66	0x3dfd46f2	0.12367047
67	0x3dff3117	0.12460535
68	0xbd470a6d	-0.048593927
69	0xbdfe4a23	-0.12416484
70	0x3e7545b2	0.23952368
71	0xbdd443ee	-0.10364519
72	0xbd055686	-0.03255322
73	0xbda0089b	-0.07814141
74	0xbdaaf27f	-0.08347034
75	0xbda23909	-0.07921035
76	0xbdf1ec7a	-0.118126824
77	0x3e4e6082	0.20154002
78	0x3d83711f	0.064180605
79	0x3e14b4f8	0.14522159
80	0xbf0aca5b	-0.5421502
81	0x3ec1e105	0.3786699
82	0x3da72362	0.081610456
83	0x3e21e545	0.15810116
84	0xbe01c1d3	-0.12671594
85	0xbe265e2a	-0.16246858
86	0x3da672b0	0.08127344
87	0x3d9d88c4	0.076921016
88	0xbe806df8	-0.250839
89	0xbdf4d220	-0.11954141
90	0xbd345424	-0.044025555
91	0xbe107a8b	-0.14109246
92	0x3cc5acc2	0.024130229
93	0x3e1abe1f	0.15111588
94	0xbe2e64c6	-0.1703063
95	0xbcde1369	-0.027108865
96	0xbea0eaf3	-0.31429252
97	0x3ee0c593	0.43900737
98	0x3d9b1123	0.07571628
99	0xbe8d6850	-0.27618647
100	0x3e81ac98	0.2532699
101	0x3e835b52	0.2565561
102	0xbe7a24dc	-0.24428123
103	0x3e0154df	0.12630032
104	0xbecba740	-0.3977604
105	0xbf0d418c	-0.5517814
106	0xbd62c07c	-0.05535935
107	0xbf2baaab	-0.67057294
108	0xbb1421d4	-0.002260317
109	0xbb5d2557	-0.003374418
110	0xbdcb579d	-0.0992882
111	0x3cd43b22	0.025907103
112	0xbd455b11	-0.04818255
113	0x3e0b29c7	0.13590156
114	0x3e379fe5	0.17932089
115	0x3c0b1b8c	0.008490454
116	0xbe4f3d9a	-0.20238343
117	0xbe07e6b1	-0.13271596
118	0x3c2f9815	0.0107174115
119	0x3ccdb98b	0.025112888
120	0x3e050804	0.12991339
121	0xbdb830dd	-0.08993695
122	0x3e097ff0	0.1342771
123	0x3da4a252	0.08038773
124	0x3d1c3fa2	0.038146622
125	0xbd2e20b8	-0.04251167
126	0x3d7aa4b4	0.06119223
127	0x3c875fc1	0.016525151
128	0xbdcc4868	-0.09974748
129	0x3d864dbc	0.065577954
130	0xbe655ddc	-0.22399086
131	0xbe222599	-0.15834655
132	0x3dde7601	0.10862351
133	0xbe4adbe8	-0.1981045
134	0xbe739dc1	-0.23790647
135	0xbd8fe82e	-0.07026707
136	0x3d7b4cab	0.061352413
137	0x3d961c08	0.07329565
138	0x3a7cd104	0.0009644183
139	0xbdc834e5	-0.09775714
140	0xbd44184e	-0.04787474
141	0xbe5f50ba	-0.21808138
142	0x3d59d6cd	0.053183366
143	0x3e288029	0.16455139
144	0x3d1851f6	0.03718754
145	0x3d3eea47	0.046610143
146	0x3d3bd23f	0.045854803
147	0xbdcf3cc7	-0.10119014
148	0xbe32233e	-0.17396256
149	0xbd788164	-0.06067027
150	0xbe237a28	-0.15964568
151	0xbdba6be2	-0.09102608
152	0xbc89ce23	-0.016821926
153	0x3e4c5674	0.19954854
154	0x3e256b6a	0.16154256
155	0x3d2b17e0	0.041770816
156	0x3cbbf057	0.022941751
157	0xbd69acd9	-0.057049606
158	0x3dca6742	0.09882976
159	0xbd8daf9a	-0.06918259
160	0xbd481481	-0.04884768
161	0xbc7e258f	-0.015511884
162	0xbe063340	-0.13105488
163	0xbdc008e8	-0.09376699
164	0xbdacbb2e	-0.08434139
165	0x39d65005	0.0004087688
166	0xbd94749f	-0.07248806
167	0x3d246c50	0.040142357
168	0xbdea750b	-0.114481054
169	0x3dfe4911	0.1241628
170	0xbe250696	-0.16115794
171	0x3d97219c	0.07379457
172	0xbdc2dd4f	-0.095148675
173	0xbcdfdd42	-0.027327184
174	0xbe0da4e2	-0.13832429
175	0xbe07a53e	-0.13246629
176	0xbe153187	-0.14569674
177	0x3c23a538	0.009988122
178	0x3e06e4da	0.13173237
179	0x3d3663ff	0.044528957
180	0x3e0209a3	0.12698989
181	0x3d358366	0.044314764
182	0xbdb3217e	-0.087466225
183	0xbd865a53	-0.06560197
184	0xbd99ecec	-0.075158924
185	0xbe222c51	-0.15837218
186	0x3d93b1f8	0.07211679
187	0xbd2dfb77	-0.042476144
188	0xbdc2737b	-0.094946824
189	0x3d59e3ad	0.053195644
190	0xbc806486	-0.015672933
191	0x3dcd4b75	0.10024158
192	0xbdf0a80b	-0.11750802
193	0x3e10d018	0.14141881
194	0xbd9e6161	-0.07733417
195	0x3d97047a	0.07373901
196	0x3df11db9	0.11773247
197	0xbcca4386	-0.0246904
198	0xbe2518bc	-0.16122717
199	0xbe0827e8	-0.13296473
200	0x3d6a0a7d	0.05713891
201	0xbdf42f7b	-0.11923119
202	0xbca1094f	-0.019657759
203	0x3e03a68c	0.12856501
204	0xbe35572a	-0.17709032
205	0x3da374d4	0.079812676
206	0x3ce0daa5	0.027448008
207	0xbbfd257c	-0.0077254158
208	0x3c2ddbd4	0.010611493
209	0xbc7fc1e5	-0.015610193
210	0x3d6fe9db	0.05857263
211	0xbe158419	-0.14601173
212	0xbd0b2609	-0.03397182
213	0xbd6500c1	-0.055908922
214	0x3da8dbac	0.08245024
215	0x3e4bf925	0.1991926
216	0xbce18b34	-0.027532198
217	0x3e3f9a6f	0.18711255
218	0x3d9e3146	0.07724242
219	0x3d52a4e7	0.051426794
220	0xbd1f8d0d	-0.038952876
221	0xbc2461c2	-0.010033073
222	0xbc880459	-0.016603636
223	0x3e427ece	0.18993685
224	0x3deb2035	0.114807524
225	0xbc493ec0	-0.012283027
226	0xbd94a05e	-0.0725715
227	0x3d4cf270	0.050035894
228	0x3d8624a7	0.0654996
229	0x3e6ed42e	0.23323128
230	0xbb57869c	-0.003288663
231	0x3e4ffdd9	0.20311679
232	0xbd0774d4	-0.0330704
233	0xbdd80cee	-0.10549341
234	0xbca9ff34	-0.020751573
235	0x3e684af0	0.22684836
236	0x3d8b847d	0.068123795
237	0xbd05dd74	-0.032681897
238	0xbdfcec0a	-0.123497084
239	0x3e11967b	0.1421756
240	0xbe6e34d3	-0.23262338
241	0x3a4f543e	0.00079089764
242	0x3d23733e	0.039904825
243	0x3edd9e9a	0.43285066
244	0xbe33985f	-0.17538594
245	0xbd4c34c2	-0.049855
246	0x3e0c946c	0.13728493
247	0xbe01e7e4	-0.12686116
248	0xbe1ba3a2	-0.1519914
249	0xbdd971ab	-0.106173836
250	0xbe02b022	-0.12762502
251	0xbe3aea2e	-0.18253395
252	0xbd59b8ac	-0.053154632
253	0x3e9ac985	0.30231872
254	0x3d72e4cb	0.059300225
255	0x3caae24e	0.020859864

decoder.lstms.bias_ih_l0 f4 [160]
0	0x3e3130ea	0.17303815
1	0x3e2f8e7c	0.17144197
2	0x3d4615af	0.048360523
3	0x3e18c1eb	0.14917724
4	0xbd7d38d6	-0.06182178
5	0x3dcad8b1	0.09904612
6	0x3ec7bb68	0.39010167
7	0xbdb3985b	-0.08769294
8	0xbd8d71d1	-0.069064744
9	0x3d928cb2	0.07155742
10	0xbc2efa60	-0.010679811
11	0x3db5468f	0.088513486
12	0x3d4df7cc	0.050285146
13	0x3eb11235	0.34584203
14	0x3e0dd745	0.1385165
15	0x3e203b45	0.1564761
16	0x3ded34e5	0.115823545
17	0x3d99a960	0.07503009
18	0x3d00f41f	0.031482812
19	0x3d1aacbd	0.037762392
20	0x3da52bb7	0.080649786
21	0xbd402594	-0.046910837
22	0x3e59b79c	0.21261448
23	0xbd5d2e62	-0.053999312
24	0xbd2d74b9	-0.042347644
25	0x3da0d204	0.07852557
26	0x3e36b990	0.17844224
27	0x3da60d09	0.08107955
28	0x3e8e66a4	0.27812684
29	0x3e667d1c	0.22508663
30	0x3e8085f0	0.25102186
31	0x3c41bb70	0.011824474
32	0x3bb85c21	0.005626217
33	0x3e953471	0.29141572
34	0xbcea10c6	-0.028572451
35	0x3e273db2	0.16332129
36	0x3e8a6162	0.27027422
37	0x3e6c6b4a	0.23087803
38	0x3d832f0b	0.06405457
39	0x3e30e4e9	0.17274822
40	0x3d3d6ee2	0.046248324
41	0xbe92f2ec	-0.2870096
42	0x3dc357c6	0.09538226
43	0x3d9b6d1c	0.0758917
44	0xbc9664bb	-0.018358579
45	0xbd9b9d7f	-0.07598399
46	0x3e48c704	0.19607168
47	0x3e37a7f9	0.1793517
48	0x3e194b5a	0.1497015
49	0x3e1abe75	0.15111716
50	0x3cbf2032	0.023330782
51	0x3da10a1f	0.078632586
52	0x3d681df0	0.056669176
53	0xbe9c9fa9	-0.3059056
54	0x3d7368c9	0.059426103
55	0xbdfb2bb1	-0.12264193
56	0xbc9ff0a4	-0.019523926
57	0xbcb94812	-0.022617374
58	0xbda60611	-0.08106626
59	0x3e15dad2	0.14634255
60	0x3e104361	0.14088203
61	0xbc79e705	-0.015252833
62	0xbe8a27c2	-0.26983458
63	0x3e616df6	0.22014603
64	0x3da9e6fe	0.082960114
65	0x3c531b38	0.012884907
66	0xbd1e3df3	-0.038633298
67	0x3a9d97b3	0.0012023359
68	0xbdd97edd	-0.106199004
69	0xbca584f2	-0.020204995
70	0xbddcd2da	-0.10782404
71	0x3e2682f9	0.162609
72	0xbdf51350	-0.11966574
73	0xbd969c7b	-0.07354065
74	0xbddccfa0	-0.10781789
75	0x3c9ff029	0.019523697
76	0xbd2927b8	-0.041297644
77	0x3e0142cf	0.12623142
78	0xbd7b2d76	-0.06132265
79	0xbd8d3761	-0.06895328
80	0xbd3d8ffc	-0.046279892
81	0xbe29c309	-0.16578306
82	0xbd15d024	-0.03657545
83	0xbe14a9ee	-0.14517948
84	0x3d146c01	0.036235813
85	0xbdd9bed8	-0.10632104
86	0x3cb968ef	0.022633044
87	0xbd485e57	-0.048918094
88	0x3d281d7f	0.041043755
89	0xbc976ee3	-0.018485492
90	0xbd7d608a	-0.061859645
91	0xbd9cdf41	-0.0765977
92	0x3c5047cb	0.012712429
93	0xbe590aca	-0.21195522
94	0xbb1f27cb	-0.0024285193
95	0x3e77e2b7	0.24207579
96	0xbe7f2f89	-0.24920477
97	0xbcb540a5	-0.022125551
98	0x3d28a86b	0.04117624
99	0xbe57e742	-0.21084312
100	0x3da9c63e	0.08289765
101	0xbdea14ca	-0.114297464
102	0x3e87cea4	0.26524842
103	0x3dc6ce11	0.09707273
104	0xbddbac7d	-0.10726259
105	0xbe3d6cb5	-0.184985
106	0xbd1f0ce5	-0.038830657
107	0xbe5a4bc2	-0.21317962
108	0xbdaffc9f	-0.085931055
109	0x3e364eab	0.17803447
110	0xbe186e50	-0.14885831
111	0x3dbac9fb	0.09120556
112	0xbd300c48	-0.042980462
113	0x3dfbe4aa	0.122994736
114	0x3db6a6c6	0.08918528
115	0x3cc319b2	0.023815963
116	0x3e839068	0.2569611
117	0xbde7adfb	-0.11312481
118	0x3d1df4cb	0.03856353
119	0xbde4da46	-0.11174445
120	0x3e5dc97a	0.21658888
121	0x3dd42fb8	0.10360664
122	0x3e449b9d	0.19199987
123	0x3d90ff48	0.07079941
124	0x3e682d9f	0.22673653
125	0x3d869e6c	0.06573185
126	0x3e811172	0.25208622
127	0x3e1441b5	0.1447819
128	0x3d8811fd	0.06644056
129	0x3e239b2b	0.1597716
130	0x3ead3f36	0.3383729
131	0x3d921651	0.07133163
132	0x3e18e976	0.14932808
133	0x3e1298b6	0.14316067
134	0x3eae99b1	0.34101632
135	0x3e6b7d80	0.22997093
136	0x3da3009e	0.07959102
137	0x3e819f0f	0.25316665
138	0xbdf918b6	-0.12162916
139	0x3dfc83b2	0.123298064
140	0x3e473442	0.19453529
141	0xbd23ebfa	-0.040019967
142	0x3e1e1e90	0.15441346
143	0x3e578f34	0.21050721
144	0x3dffd464	0.12491682
145	0x3e4b77cc	0.19869918
146	0x3e1d5b75	0.1536692
147	0x3d1ae87f	0.03781938
148	0x3e829174	0.25501597
149	0x3e97fd89	0.2968562
150	0x3e607a31	0.21921612
151	0x3e9b6bae	0.3035559
152	0x3d31e5e3	0.043432128
153	0x3e2a5969	0.1663567
154	0x3d79106b	0.060806673
155	0x3ccd2dec	0.025046311
156	0xbd687032	-0.056747623
157	0x3e838e12	0.2569433
158	0x3e007a76	0.12546715
159	0x3e774bec	0.24150056

decoder.lstms.bias_hh_l0 f4 [160]
0	0x3e9253f1	0.28579667
1	0x3e558125	0.20850046
2	0xbcb6faa3	-0.02233631
3	0x3e05b38e	0.13056776
4	0x3db1a132	0.08673324
5	0x3d81a6fc	0.06330678
6	0x3e51bb66	0.20481643
7	0x3e1b1e90	0.15148377
8	0x3e065713	0.13119154
9	0xbc1e7c44	-0.009673182
10	0x3df26bd7	0.11836975
11	0xbc59a3fa	-0.013283724
12	0x3e3c80e7	0.18408547
13	0x3df1a5b8	0.117991865
14	0x3c00c1c4	0.007858697
15	0x3e8d1470	0.27554655
16	0x3e827964	0.2548324
17	0xbd094dae	-0.033521347
18	0xbd5d489e	-0.05402433
19	0x3d244385	0.040103454
20	0x3b78d007	0.003796579
21	0xbc776d15	-0.015101691
22	0x3e94227d	0.28932562
23	0x3e7ec1fa	0.24878684
24	0x3dcfa76d	0.10139356
25	0x3dc9883c	0.09840438
26	0x3d630a4d	0.055429745
27	0x3e58e929	0.21182694
28	0x3d7baf5c	0.061446533
29	0x3ea7f4ac	0.32803857
30	0x3d776684	0.0604005
31	0x3e85cb0a	0.2613147
32	0x3e089372	0.13337496
33	0x3eebd626	0.4606182
34	0x3e2585be	0.161643
35	0x3e6ca32a	0.23109117
36	0x3e974c19	0.29550245
37	0x3e2406f1	0.16018273
38	0x3e2f939e	0.17146155
39	0x3d134854	0.03595765
40	0x3c53b20c	0.012920868
41	0xbe95886c	-0.29205644
42	0xbdd0bacf	-0.10191881
43	0x3ded721e	0.11594032
44	0x3dc8093d	0.09767387
45	0x3d9c9707	0.07645994
46	0x3ea2cb12	0.31795555
47	0xbdadaa47	-0.084797435
48	0x3d1df4e8	0.03856364
49	0x3ce7322d	0.028222168
50	0x3b65e0f7	0.0035076716
51	0xbe37355c	-0.17891449
52	0x3e39a019	0.18127479
53	0xbd316570	-0.04330963
54	0x3d9fbe90	0.07800019
55	0xbd9255f7	-0.07145303
56	0xbd00c607	-0.031438854
57	0x3e3551c7	0.17706977
58	0xbc14cfb0	-0.00908272
59	0x3e10398c	0.14084452
60	0xbd324ed1	-0.043532196
61	0x3c7e5918	0.015524171
62	0xbe89667b	-0.26836
63	0x3d296aa4	0.041361466
64	0xbc8715f7	-0.016489966
65	0x3de84b5a	0.11342497
66	0x3d2bfa5b	0.041986804
67	0x3e260eae	0.16216537
68	0x3df3ff3d	0.11913917
69	0x3e166831	0.14688183
70	0x3d27f8b4	0.041008666
71	0x3e1c91e8	0.15290034
72	0xbdfe1fa9	-0.124083824
73	0xbe27ed1f	-0.16399048
74	0x3e140a44	0.14457041
75	0x3e3c4d86	0.18388948
76	0xbddc2e76	-0.10751049
77	0x3dfc6322	0.123235956
78	0x3d9198c3	0.07109215
79	0xbdc54b8e	-0.096335515
80	0x3b64a58f	0.003488872
81	0xbe2e569c	-0.17025226
82	0x3e13be56	0.14428076
83	0x3e01ef20	0.12688875
84	0xbe389d7c	-0.18028826
85	0xbd760431	-0.06006259
86	0x3e67f5de	0.22652385
87	0x3db10927	0.08644324
88	0xbe20edac	-0.15715665
89	0x3dda6384	0.10663512
90	0x3d2ed885	0.042686958
91	0x3cf57af7	0.02996586
92	0xbde842be	-0.11340855
93	0xbe654f56	-0.22393546
94	0xbe20b7e5	-0.1569515
95	0x3e25984f	0.16171382
96	0xbd968569	-0.07349665
97	0x3d4b8d8d	0.04969554
98	0xbd545575	-0.05183931
99	0x3b22959c	0.0024808412
100	0x3dbe9c2d	0.09307132
101	0xbcf38c95	-0.02973012
102	0x3b3b0708	0.0028538126
103	0x3d85304c	0.065033525
104	0xbd69ba2e	-0.05706232
105	0x3b360026	0.0027771085
106	0x3e70413c	0.23462385
107	0xbe5ba410	-0.21449304
108	0xbe65b516	-0.2243236
109	0x3d15abb6	0.03654071
110	0xbe0009fd	-0.1250381
111	0xbd0214c3	-0.03175808
112	0x3cc2e5d0	0.023791224
113	0xbb502a9e	-0.0031763683
114	0x3e4e85d7	0.20168243
115	0x3e4461ed	0.1917798
116	0x3d4e0110	0.050293982
117	0xbe13d8fe	-0.14438245
118	0x3d29a111	0.04141337
119	0xbe7d346b	-0.24727027
120	0x3da4f145	0.08053831
121	0x3e82bc4b	0.2553428
122	0x3b65a5bd	0.0035041415
123	0x3eaed551	0.34147123
124	0x3c035dfb	0.008018012
125	0x3dfda811	0.12385572
126	0x3e0fd02f	0.1404426
127	0x3d8b85ff	0.06812667
128	0x3d8738cc	0.0660263
129	0x3e59659d	0.21230169
130	0x3db9cdc7	0.09072452
131	0x3e5dade0	0.2164836
132	0x3e808f77	0.25109455
133	0x3e017108	0.12640774
134	0x3dcf2735	0.101149
135	0x3dbdfeae	0.09277092
136	0x3ea04253	0.313006
137	0x3ecf5c5c	0.40500152
138	0x3dbf30d5	0.09335486
139	0x3d8469a9	0.064654656
140	0x3e801aca	0.25020438
141	0x3e019bf6	0.1265715
142	0x3da86b48	0.08223587
143	0x3e9c4e3d	0.3052844
144	0xbc9202f8	-0.017823681
145	0x3e7c454b	0.24635808
146	0x3e166f54	0.14690906
147	0x3e0c2332	0.13685301
148	0x3eb34949	0.3501685
149	0x3cbead8e	0.023276117
150	0x3e9a59aa	0.30146533
151	0x3e675f5f	0.22594975
152	0x3e307ab8	0.17234313
153	0x3e419c16	0.18907198
154	0x3e66c37f	0.22535513
155	0x3e8fc3da	0.2807911
156	0x3da6c418	0.08142871
157	0x3e4750df	0.19464444
158	0x3e97d6c1	0.29656032
159	0x3dee15b0	0.1162523
